src/toxicity_detector/resources/toxicity-model.pt (torch, 197225 bytes, 5 tensors)

net.0.weight f4 [128, 313]
0.02726009 -0.05398083 0.023604693 -0.046943013 0.02838661 -0.039482262 -0.040587712 -0.05457738
-0.023342453 0.013039177 0.06256941 -0.0615295 -0.07125798 0.012796609 0.0079334965 -0.07052916
-0.048533954 -0.0079475595 -0.062487114 0.0007643521 0.019421197 0.0016816328 -0.008636669 -0.05024775
-0.019594261 0.039783202 0.046979055 0.037513725 0.031517655 0.015965195 0.029246213 -0.06772493
0.055835824 0.06923524 0.029675279 -0.02517171 0.063745275 0.028317709 0.07880746 -0.009865927
0.0060200477 -0.050479893 0.07276396 0.057796713 -0.052122787 0.025372133 0.02127698 0.118074
0.06046213 -0.06902815 0.06680985 0.07163377 0.03250541 0.07923641 0.051135242 -0.047610227
0.014704681 0.029694384 0.018711083 0.023175796 -0.03218474 0.065255225 -0.07678799 -0.066992365
0.010563668 -0.0011728563 -0.011977161 0.071640395 0.037757803 0.066166624 0.00899682 -0.016407128
0.009729967 -0.04854302 0.0859965 -0.029071877 -0.011938167 -0.048593886 0.009892165 0.037213184
-0.08755714 0.013630185 0.008644879 -0.023365766 0.027285274 -0.01467111 -0.045277048 -0.012198426
0.00863497 0.034895193 -0.037118327 -0.06864732 0.018890388 0.024385346 -0.07808534 0.0694462
-0.0568547 -0.06815562 0.05067992 -0.0067696273 -0.058132123 0.008382211 0.052201893 -0.0017496336
0.012612587 0.045438655 -0.06921322 -0.06864106 0.03050636 0.0047811023 0.059895433 0.008686268
0.006496967 -0.04462553 -0.05643647 0.058635652 0.07477276 0.098286636 -0.062496092 -0.0031003072
-0.022812357 0.023158308 0.077068254 -0.0701094 -0.043194212 -0.011489085 -0.039209526 -0.03447461
0.017753422 0.031903774 -0.04277998 -0.063455686 0.037262823 0.10925774 0.010739268 0.019161383
0.007221359 0.030745948 0.0032359632 0.055073082 -0.056010783 -0.019887406 -0.09774964 -0.0878315
-0.08529301 0.057206787 -0.008320203 -0.056192227 0.0057953536 0.046987455 0.016927326 0.08406374
0.029185358 0.028547743 0.052640047 -0.011591975 -0.053581476 -0.027433049 0.052151848 -0.0488917
0.029682465 0.027788157 0.06033786 -0.058108594 -0.08518258 -0.012665575 -0.022066759 0.00062242243
-0.06608527 0.016338639 0.04784752 0.052432753 -0.049939662 -0.042626996 0.0836116 0.0004754108
-0.05294508 -0.0075253113 0.056124877 -0.040448796 -0.017832007 0.030427394 0.002275279 0.010088693
-0.0020207826 0.06229555 -0.05013118 -0.03521449 0.08192262 -0.04550425 -0.00028147284 0.024278633
0.0047735805 0.0114444895 0.028489288 -0.014811895 -0.07277969 -0.057389244 0.060710143 0.0033212889
0.04497644 0.0014907839 -0.03147191 -0.027416663 0.023463346 -0.011978429 0.018414995 0.070990905
-0.02616768 -0.044785596 -0.046860468 -0.044647124 0.09711181 -0.012657862 -0.0075504994 0.019582847
-0.09807135 -0.07019512 0.0697484 0.030697396 0.026669804 0.07850599 -0.066126265 -0.08166149
0.079863854 0.07498667 0.005478936 0.000966866 0.030186193 0.009985291 -0.033892877 0.0023411326
0.00014720019 0.032219727 -0.0018009276 0.035329133 0.027304096 0.045095287 0.072302796 0.014359191
0.04315174 -0.0065634786 0.053739417 0.096164145 0.034475926 -0.0022429794 0.07393237 -0.049439684
0.031870224 -0.023957862 0.008223201 0.004906321 -0.00045617748 -0.009266395 -0.046368327 0.006908251
00000000: 8d50 df3c 011b 5dbd a15e c13c 5147 40bd
00000010: 098b e83c 27b8 21bd 4d3f 26bd 888c 5fbd
00000020: ac38 bfbc 46a2 553c 6424 803d 5b06 7cbd
00000030: b4ef 91bd dea8 513c 7ffb 013c 9871 90bd
00000040: 8acb 46bd 7b36 02bc 7df2 7fbd cd5e 483a
00000050: 3419 9f3c 3c6a dc3a d180 0dbc 96d0 4dbd
00000060: 2584 a0bc b6f3 223d 1c6d 403d fea7 193d
00000070: a818 013d 71c9 823c c195 ef3c 5eb3 8abd
00000080: 1bb4 643d 35cb 8d3d 9219 f33c e734 cebc
00000090: e28c 823d 8afa e73c ce65 a13d b2a4 21bc
000000a0: d243 c53b 01c4 4ebd 4505 953d 3fbc 6c3d
000000b0: b47e 55bd 38d9 cf3c 104d ae3c c8d0 f13d
000000c0: 23a7 773d a15e 8dbd 9ad3 883d bab4 923d
000000d0: 6524 053d b346 a23d 3073 513d f102 43bd
000000e0: e7eb 703c a341 f33c fc47 993c 2bdb bd3c
000000f0: 25d4 03bd 88a4 853d 0643 9dbd 4b33 89bd
00000100: 3c13 2d3c 87ba 99ba db3b 44bc 33b8 923d
00000110: eda7 1a3d 5e82 873d 6667 133c 3e68 86bc
00000120: 716a 1f3c 0cd5 46bd ef1e b03d 2528 eebc
00000130: 4d98 43bc 620a 47bd bf12 223c da6c 183d
00000140: 2851 b3bd 2451 5f3c 40a3 0d3c 9069 bfbc
00000150: 5e85 df3c 185f 70bc 6d74 39bd e8db 47bc
00000160: b079 0d3c 43ee 0e3d 6309 18bd f796 8cbd
00000170: 04c0 9a3c c7c3 c73c 35eb 9fbd cf39 8e3d
00000180: 79e0 68bd 2c95 8bbd bf95 4f3d c0d3 ddbb
00000190: f31b 6ebd 8b55 093c a7d1 553d f653 e5ba
000001a0: 06a5 4e3c e21d 3a3d a9bf 8dbd af93 8cbd
000001b0: 79e8 f93c cbaa 9c3b ea54 753d d950 0e3c
000001c0: 82e4 d43b 42c9 36bd ee29 67bd f02b 703d
000001d0: 7622 993d 814a c93d e7fb 7fbd 862e 4bbb
000001e0: fbe0 babc 7eb6 bd3c f6d5 9d3d 8495 8fbd
000001f0: 6aec 30bd b73c 3cbc 2b9a 20bd 4035 0dbd
00000200: a06f 913c 88ad 023d 0f3a 2fbd 0ef5 81bd
00000210: e7a0 183d 86c2 df3d c1f3 2f3c 55f8 9c3c
00000220: 26a1 ec3b edde fb3c 7412 543b 5094 613d
00000230: 906b 65bd eaea a2bc f730 c8bd 00e1 b3bd
00000240: 1aae aebd aa51 6a3d 7651 08bc d229 66bd
00000250: f3e6 bd3b eb75 403d 2dab 8a3c 9c29 ac3d
00000260: 2216 ef3c f5dc e93c 179d 573d 44ec 3dbc
00000270: 4078 5bbd 46bb e0bc 2d9d 553d aa42 48bd
00000280: a428 f33c fda3 e33c d524 773d 4703 6ebd
00000290: 3474 aebd 4683 4fbc 59c5 b4bc 102a 233a
000002a0: b757 87bd 9cd8 853c c3fb 433d bac3 563d
000002b0: 888d 4cbd a599 2ebd 8f3c ab3d 8f40 f939
000002c0: f1dc 58bd e396 f6bb 33e3 653d a3ad 25bd
000002d0: 6e14 92bc df42 f93c d91c 153b 0c4b 253c
000002e0: 1b6f 04bb 9e29 7f3d 5a56 4dbd 123d 10bd
000002f0: 0cc7 a73d aa62 3abd a592 93b9 fce3 c63c
00000300: b26b 9c3b ab81 3b3c 5e62 e93c 97ad 72bc
00000310: 850d 95bd fc10 6bbd 33ab 783d fba9 593b
00000320: 3739 383d 6866 c33a b1e8 00bd e998 e0bc
00000330: 3436 c03c 2c41 44bc 0bdb 963c ae63 913d
00000340: 9a5d d6bc 1a71 37bd c3f0 3fbd e7df 36bd
00000350: 8fe2 c63d ec62 4fbc 2e6a f7bb 356c a03c
00000360: a2d9 c8bd 76c2 8fbd 40d8 8e3d 1b79 fb3c
00000370: a27a da3c c0c7 a03d 356d 87bd 243e a7bd
00000380: a98f a33d 9c92 993d a588 b33b 4775 7d3a
00000390: 0949 f73c 5999 233c 42d3 0abd b06d 193b
000003a0: c059 1a39 d5f8 033d 1a0d ecba 48b5 103d
000003b0: d7ac df3c d6b5 383d 7d13 943d d042 6b3c
000003c0: e1bf 303d 7312 d7bb dd1d 5c3d b5f1 c43d
000003d0: a136 0d3d f3fe 12bb db69 973d 4481 4abd
000003e0: 5a8a 023d 4743 c4bc 9bba 063c 34c5 a03b
000003f0: 1b2b efb9 14d2 17bc b7ec 3dbd 9c5e e23b

net.0.bias f4 [128]
-0.005153744 0.0012740677 0.0038384413 0.01839498 -0.019674832 -0.06328109 -0.01670459 0.008143525
-0.03594659 0.04954709 0.031109307 -0.0384771 -0.009888655 -0.008179674 0.023525972 0.021093316
0.057181023 0.009599795 0.027030779 0.008969171 -0.006938528 0.013733609 0.026121635 0.031771254
0.0125879515 -0.00916546 0.014405124 -0.008551428 -0.040939797 -0.0046735127 -0.03088783 -0.026593275
0.0012014776 -0.053835727 -0.010595543 -0.023463404 -0.037140094 -0.053247046 -0.07031241 0.02879262
-0.0013082505 0.049552586 -0.002291909 0.036938295 -0.03598523 -0.058111534 0.0053011407 0.031187035
0.020725708 -0.02019421 -0.06651674 0.058346286 -0.004418798 0.054988917 0.024835562 0.015120865
0.051205054 0.0022105281 -0.04134075 -0.016251955 0.024151336 -0.037067164 -0.04989112 0.04569551
0.026792169 -0.016037263 -0.06256543 -0.07168092 -0.03284442 0.027880263 0.044315424 0.04681738
0.04762303 0.059350226 -0.06344965 -0.016729532 -0.017307587 0.019217549 0.038828332 -0.034877405
0.03761741 0.050073456 0.024971249 0.014813313 -0.022206943 -0.0016759146 -0.017705686 0.010290266
-0.01034829 -0.01625109 0.008476632 -0.023377458 -0.04306025 0.007996119 0.018438162 0.021372408
-0.020888068 0.007988118 -0.05648163 -0.0020386335 -0.018287418 -0.027948901 0.039675005 -0.030942863
0.0407973 0.014860928 -0.004048551 0.013372506 -0.06373916 -0.048850134 0.011572965 0.020006118
-0.050247394 0.01868556 -0.037247956 -0.028788783 0.052589625 0.030194048 0.018659083 -0.051664274
0.007974255 -0.030687587 0.037846856 -0.002046919 0.028752783 -0.03662734 -0.00611994 0.0654527
00000000: bde0 a8bb 9efe a63a 5c8e 7b3b 12b1 963c
00000010: 1d2d a1bc 8499 81bd 10d8 88bc 6b6c 053c
00000020: bb3c 13bd e4f1 4a3d f2d8 fe3c 2a9a 1dbd
00000030: 0604 22bc 0a04 06bc 8ab9 c03c e4cb ac3c
00000040: a636 6a3d 7548 1d3c a76f dd3c 6ef3 123c
00000050: 975c e3bb ee02 613c 0afd d53c 9322 023d
00000060: b23d 4e3c ba2a 16bc 7803 6c3c 4a1b 0cbc
00000070: 7db0 27bd 4424 99bb 7908 fdbc 24da d9bc
00000080: e67a 9d3a da82 5cbd ee98 2dbc 5336 c0bc
00000090: 3620 18bd 9319 5abd f4ff 8fbd 80de eb3c
000000a0: 9a79 abba a7f7 4a3d da33 16bb 9c4c 173d
000000b0: 4065 13bd 5c06 6ebd 31b5 ad3b f47b ff3c
000000c0: f6c8 a93c 546e a5bc ee39 88bd 84fc 6e3d
000000d0: 90cb 90bb 0f3c 613d f373 cb3c 81bd 773c
000000e0: 64bc 513d 82de 103b eb54 29bd d222 85bc
000000f0: 06d9 c53c bdd3 17bd a25a 4cbd 372b 3b3d
00000100: 407b db3c 9460 83bc 4e22 80bd 72cd 92bd
00000110: df87 06bd 2665 e43c 1784 353d 95c3 3f3d
00000120: 5e10 433d 3919 733d e4f1 81bd 5f0c 89bc
00000130: a4c8 8dbc 1f6e 9d3c 750a 1f3d 9cdb 0ebd
00000140: b714 1a3d d319 4d3d 8190 cc3c 8ab3 723c
00000150: 56eb b5bc 5daa dbba 840b 91bc 8198 283c
00000160: e08b 29bc 0221 85bc 92e1 0a3c 1582 bfbc
00000170: f25f 30bd 2702 033c a10b 973c 3015 af3c
00000180: 741d abbc 98e0 023c 4859 67bd 989a 05bb
00000190: 7fcf 95bc 18f5 e4bc 4282 223d e37b fdbc
000001a0: 121b 273d 407b 733c b5a9 84bb 5b18 5b3c
000001b0: ad89 82bd 1417 48bd 899c 3d3c dfe3 a33c
000001c0: 36d0 4dbd 7612 993c 5091 18bd 74d6 ebbc
000001d0: 3868 573d 8259 f73c efda 983c eb9d 53bd
000001e0: 73a6 023c 8964 fbbc 4e05 1b3d 9a25 06bb
000001f0: f58a eb3c 8d06 16bd c789 c8bb 110c 863d

net.3.weight f4 [64, 128]
0.06382156 0.061381802 0.059333388 0.11479217 0.09022371 -0.019003315 0.027811073 0.05609554
0.07968809 0.04117597 0.01335492 -0.021358903 -0.0019847732 0.03481818 0.13029897 -0.055421285
0.05355156 0.08617043 0.0017290503 0.1253217 0.07753098 0.027862705 0.059446376 -0.013416011
0.14729205 -0.052461877 0.09276895 -0.023582598 0.045257896 0.017875193 0.0838626 -0.013336462
0.0031827465 0.056552757 -0.015347404 0.015136232 -0.0045517017 0.12216068 -0.047400523 0.1463588
0.112943836 0.134686 0.025322009 -0.04824497 0.07079175 -0.011040411 -0.031550612 -0.04348832
0.11098037 0.040398058 -0.03482591 0.11107053 0.10739205 0.039692968 0.1259693 0.1380801
0.05548198 0.0681195 0.06679548 0.047098603 0.059369564 0.04417057 -0.026376927 0.052781604
-0.052042037 0.065780774 -0.04633939 0.042585455 0.03748722 0.108990364 0.02930283 0.08841819
0.06195527 0.076181844 0.004248581 0.06141061 0.13681453 -0.038340196 -0.06968791 -0.049009822
0.0071038986 0.10865457 -3.647012e-05 0.08750356 -0.023175735 0.0010536566 0.09815094 0.05099773
-0.0023175864 -0.06384845 0.119835414 0.00081439107 -0.023507431 -0.07200916 -0.015112731 0.04433686
-0.036111716 0.0037028166 0.016174495 0.01952467 0.0050043515 -0.059702113 0.08545154 -0.060171787
-0.00032918807 0.020987226 -0.0054764394 -0.008592908 0.01727052 -0.04492449 0.11247626 0.03980257
-0.004105128 0.08745164 0.025798608 0.011700214 0.0649475 0.05497566 0.010358889 0.013218227
-0.0135746235 -0.03356566 0.046991594 0.061829366 -0.03933202 -0.117834404 -0.011520876 0.047272187
-0.010365409 -0.06820975 -0.07053178 -0.02948876 0.054556128 -0.06925187 -0.08293085 -0.023123099
0.0682921 -0.07950862 0.022299908 -0.025284948 0.0752802 -0.063944295 -0.079497725 0.029897474
-0.098521814 -0.076934546 -0.07752256 -0.05676926 0.008929183 -0.03609339 0.0036440382 0.048178855
-0.15166435 -0.03317826 0.0035007282 0.01996489 0.0839147 0.07708542 0.0750593 0.0013251613
-0.09700086 -0.07279571 0.027479295 0.076804996 -0.14300853 -0.0608692 0.12219593 -0.14964254
0.024001544 0.021523902 0.0683382 -0.021106092 -0.12437701 0.08367944 -0.038923416 -0.07949281
-0.011927363 -0.05184365 -0.018117651 -0.067815736 -0.08259154 -0.002868041 -0.08825839 -0.0051837876
0.07712296 0.038141605 -0.0696523 -0.07778037 -0.03480613 -0.038558222 0.027377246 -0.010698862
0.08625692 -0.11056482 0.0053505846 0.064580604 -0.03145243 0.049131133 -0.010013481 -0.06943533
-0.061393995 -0.085591935 0.08671453 -0.008503251 -0.13932046 -0.06867783 -0.048834074 -0.04336932
0.05291346 -0.02142117 -0.0833599 -0.08715307 -0.1388205 -0.035872716 0.0055860234 -0.063441984
-0.04784704 0.11566755 -0.00090215565 -0.084071234 0.011872989 -0.091338284 -0.038966022 -0.10802951
-0.044960305 0.028365742 -0.034320414 0.1324994 -0.019169066 0.07193905 0.042688016 -0.037508406
-0.004749137 -0.032922465 -0.017748868 -0.074081354 -0.058194686 -0.020432638 0.008748306 -0.016419498
-0.049946856 0.011712309 -0.0010236475 -0.07146454 -0.10080368 0.014911491 0.05834476 -0.05705727
-0.017473266 0.13457502 0.047881432 -0.099746294 0.06254619 -0.00423919 -0.0019068054 -0.08702967
00000000: e1b4 823d 7c6b 7b3d 9107 733d 2818 eb3d
00000010: 35c7 b83d d7ac 9bbc 0cd4 e33c 70c4 653d
00000020: 8233 a33d 22a8 283d 98ce 5a3c def8 aebc
00000030: f812 02bb 829d 0e3d 186d 053e 6e01 63bd
00000040: e158 5b3d 1f7a b03d 4da1 e23a 5554 003e
00000050: 90c8 9e3d 5440 e43c 0b7e 733d d4ce 5bbc
00000060: bad3 163e 44e2 56bd a6fd bd3d 4b30 c1bc
00000070: 5860 393d ff6e 923c 28c0 ab3d 2d81 5abc
00000080: a095 503b dda3 673d ae73 7bbc f5fd 773c
00000090: 7126 95bb 612f fa3d 0d27 42bd 15df 153e
000000a0: 194f e73d 20eb 093e 1a70 cf3c 859c 45bd
000000b0: 44fb 903d d7e2 34bc 373b 01bd cf20 32bd
000000c0: ad49 e33d 6f78 253d 9da5 0ebd f278 e33d
000000d0: 5df0 db3d 1895 223d 19fe 003e df64 0d3e
000000e0: 1341 633d 3d82 8b3d 12cc 883d 77ea 403d
000000f0: 802d 733d 33ec 343d 6d14 d8bc 8631 583d
00000100: 082a 55bd 12b8 863d 5fce 3dbd 166e 2e3d
00000110: 338c 193d 5736 df3d 7d0c f03c 9914 b53d
00000120: cfc4 7d3d 3a05 9c3d ae37 8b3b b189 7b3d
00000130: 1c19 0c3e 9c0a 1dbd 89b8 8ebd 86be 48bd
00000140: d2c7 e83b 4a86 de3d 7ef7 18b8 1135 b33d
00000150: 0adb bdbc d91a 8a3a 5c03 c93d ffe2 503d
00000160: a6e2 17bb fac2 82bd 456c f53d dc7c 553a
00000170: a892 c0bc 8a79 93bd 639b 77bc 919a 353d
00000180: e1e9 13bd f4aa 723b 6080 843c 33f2 9f3c
00000190: 8bfb a33b 348a 74bd 3801 af3d b176 76bd
000001a0: e096 acb9 67ed ab3c b473 b3bb 45c9 0cbc
000001b0: e87a 8d3c be02 38bd f459 e63d 0508 233d
000001c0: 4f84 86bb d819 b33d 9a57 d33c 41b2 3f3c
000001d0: 3203 853d 282e 613d 54b8 293c 4391 583c
000001e0: 1968 5ebc 257c 09bd 427a 403d ca40 7d3d
000001f0: 9d1a 21bd 2a53 f1bd 0ec2 3cbc 7ba0 413d
00000200: add3 29bc 8eb1 8bbd f772 90bd 6992 f1bc
00000210: 3f76 5f3d edd3 8dbd a6d7 a9bd a76c bdbc
00000220: bbdc 8b3d 6ad5 a2bd 4cae b63c 6122 cfbc
00000230: 812c 9a3d 3af5 82bd b4cf a2bd 8ceb f43c
00000240: cec5 c9bd dc8f 9dbd 26c4 9ebd e286 68bd
00000250: b54b 123c aad6 13bd d1d0 6e3b 3157 453d
00000260: e64d 1bbe ede5 07bd 796c 653b 698d a33c
00000270: 78db ab3d f6de 9d3d b1b8 993d 09b1 ad3a
00000280: 63a8 c6bd eb15 95bd 421c e13c f04b 9d3d
00000290: d470 12be fb51 79bd dc41 fa3d e53b 19be
000002a0: e39e c43c e552 b03c e6f4 8b3d afe6 acbc
000002b0: 60b9 febd 2060 ab3d 296e 1fbd 20cd a2bd
000002c0: fd6a 43bc 025a 54bd 786b 94bc fae2 8abd
000002d0: c125 a9bd bef5 3bbb d1c0 b4bd c3dc a9bb
000002e0: a4f2 9d3d 5f3a 1c3d dda5 8ebd 514b 9fbd
000002f0: df90 0ebd 3aef 1dbd 3f46 e03c 484a 2fbc
00000300: 78a7 b03d cf6f e2bd f553 af3b d642 843d
00000310: 43d4 00bd ba3d 493d 950f 24bc 1c34 8ebd
00000320: 4578 7bbd d34a afbd 6397 b13d 3851 0bbc
00000330: 06aa 0ebe f6a6 8cbd 3d06 48bd 07a4 31bd
00000340: c9bb 583d 737b afbc 98b8 aabd 4f7d b2bd
00000350: f626 0ebe 45ef 12bd f60a b73b dfed 81bd
00000360: 42fb 43bd 1ce3 ec3d a47e 6cba 8a2d acbd
00000370: ed86 423c 910f bbbd d69a 1fbd 933e ddbd
00000380: 4c28 38bd 465f e83c 9093 0cbd ecad 073e
00000390: 7208 9dbc c854 933d a1d9 2e3d 6aa2 19bd
000003a0: a69e 9bbb b5d9 06bd 1366 91bc f7b7 97bd
000003b0: 8d5d 6ebd 5962 a7bc 0e55 0f3c 2f82 86bc
000003c0: 1395 4cbd fce4 3f3c e92b 86ba 005c 92bd
000003d0: 2972 cebd 544f 743c eafa 6e3d e2b4 69bd
000003e0: 1824 8fbc 09ce 093e 521f 443d c947 ccbd
000003f0: 3818 803d e7e8 8abb c6ed f9ba 9d3c b2bd

net.3.bias f4 [64]
-0.03382439 0.0024739448 0.033068303 -0.04746571 0.022869758 0.009901746 0.01898019 -0.02673368
-0.075980656 -0.06453709 -0.05315841 -0.009756642 -0.08151925 0.053002 -0.013501479 0.0925483
-0.06446969 0.04551427 0.07662189 0.03306472 -0.03602178 0.15658882 0.13428181 -0.07530399
-0.0047029876 0.0112532955 0.011887376 -0.054084633 0.10657974 0.0775544 0.098764114 0.09729523
0.022471912 -0.06629509 -0.05550862 0.11609924 0.15162097 0.093258165 0.16092871 0.0712514
0.13630119 -0.031215167 -0.07073824 0.035349164 -0.050429955 0.047192834 -0.046752907 -0.046769604
0.034695882 -0.033560157 0.10867163 0.18742335 0.05088971 -0.043823823 0.06162285 0.07542869
0.009753198 0.076655045 0.08024128 -0.066998385 0.16536503 0.03280853 0.08247404 0.05321598
00000000: 728b 0abd e821 223b a172 073d 686b 42bd
00000010: 5c59 bb3c ef3a 223c 587c 9b3c 9700 dbbc
00000020: bf9b 9bbd 062c 84bd a2bc 59bd 53da 1fbc
00000030: 91f3 a6bd a018 593d 4f35 5dbc f789 bd3d
00000040: af08 84bd 2c6d 3a3d f0eb 9c3d df6e 073d
00000050: 938b 13bd d258 203e 2c81 093e fa38 9abd
00000060: 851b 9abb be5f 383c 45c3 423c d987 5dbd
00000070: 7b46 da3d d7d4 9e3d d744 ca3d b942 c73d
00000080: 0417 b83c b8c5 87bd 025d 63bd 70c5 ed3d
00000090: 8742 1b3e 23fe be3d 7fca 243e 41ec 913d
000000a0: 8a92 0b3e f3b6 ffbc 36df 90bd 49ca 103d
000000b0: a48f 4ebd 464d 413d fa7f 3fbd 7c91 3fbd
000000c0: 451d 0e3d 6076 09bd 3b8f de3d e8eb 3f3e
000000d0: bb71 503d 9c80 33bd 3e68 7c3d 5b7a 9a3d
000000e0: e1cb 1f3c 52fd 9c3d 8a55 a43d 7336 89bd
000000f0: 7355 293e 3d62 063d 26e8 a83d 00f9 593d

net.5.weight f4 [1, 64]
-0.12718725 0.13871317 -0.09490287 -0.17008917 -0.00912628 -0.11747949 -0.09478774 -0.035942927
-0.05172759 -0.033259623 -0.08169525 -0.06348122 -0.0569921 -0.1255223 -0.06731389 -0.12378735
-0.14099349 -0.08980182 -0.12660438 0.11749885 -0.1406522 0.19911261 0.14523242 -0.16585682
-0.059456684 0.15281753 -0.1536864 -0.0826908 0.07210234 0.14353456 0.08069072 0.12312435
-0.056348532 -0.054424647 -0.14985913 0.19236426 0.12530981 0.16536358 0.17527956 -0.09597306
0.1334888 -0.042773604 -0.13453043 -0.15388593 -0.12821276 0.12695934 -0.08292225 -0.15779193
-0.066595115 -0.1516489 0.06733443 0.10208548 0.09408946 -0.083459385 -0.05191034 0.10067442
-0.108049355 0.16053036 0.16552725 -0.12458797 0.18949436 -0.07351646 0.09530907 0.16425358
00000000: 603d 02be d30a 0e3e 705c c2bd db2b 2ebe
00000010: 6586 15bc 1699 f0bd 1320 c2bd e438 13bd
00000020: 4fe0 53bd 3e3b 08bd d74f a7bd 7102 82bd
00000030: 8c70 69bd eb88 00be dddb 89bd 3984 fdbd
00000040: 9960 10be 04ea b7bd 94a4 01be 3da3 f03d
00000050: 2107 10be 2de4 4b3e cfb7 143e 5fd6 29be
00000060: da88 73bd 337c 1c3e f85f 1dbe cb59 a9bd
00000070: 64aa 933d b9fa 123e 2d41 a53d 9f28 fc3d
00000080: b8cd 66bd 61ec 5ebd ac74 19be 23fb 443e
00000090: 3751 003e 1255 293e 7c7c 333e 868d c4bd
000000a0: 4ab1 083e 6033 2fbd 58c2 09be 4694 1dbe
000000b0: 354a 03be a101 023e 24d3 a9bd 3594 21be
000000c0: 0563 88bd d949 1bbe a2e6 893d 3112 d13d
000000d0: fab1 c03d c1ec aabd f09f 54bd 642e ce3d
000000e0: fb48 ddbd 1262 243e fa7f 293e fa27 ffbd
000000f0: cf0a 423e cc8f 96bd 6731 c33d 1732 283e
