src/toxicity_detector/resources/toxicity-model.pt (torch, 203021 bytes, 13 tensors)

net.0.weight f4 [128, 313]
000000 ba 24 de 3c ee ba b5 bc ed 89 16 bd 01 07 a7 bb
       0.027117122 -0.022183862 -0.03675263 -0.0050972705
000010 e5 eb b9 3b 05 a4 b5 3c 40 9c 5a bd 29 2b 17 3d
       0.005673873 0.022172937 -0.053371668 0.036906395
000020 05 bc 70 bd 0f 93 3c bd 08 3c d6 3c 1c a5 6e 3d
       -0.05877306 -0.046038684 0.026151672 0.05826293
000030 9b f7 82 3d 7f c0 42 3d 32 43 cc 3c b7 54 88 3c
       0.06394883 0.04754686 0.024934385 0.016641958
000040 6b 51 d0 bc d6 a6 85 3d d0 f3 23 3d be 79 48 3d
       -0.025429448 0.06525962 0.04002744 0.048944227
000050 69 d9 98 bc 18 49 c1 3d f3 63 7a 3c 07 37 e9 3c
       -0.018658357 0.0943777 0.015282619 0.028468622
000060 c3 4e 06 3d 43 37 fd 3c bc c5 47 bd fc 1d e8 3c
       0.032789957 0.03091014 -0.04877256 0.02833461
000070 ad 53 b8 bd 02 bc 2c bd 0e 2c f4 bb 3d 41 a1 3c
       -0.09000335 -0.042171486 -0.007451541 0.019684428
000080 11 77 ec bc e6 92 5a bc 2e c5 4f ba 07 1a 2f 3d
       -0.028865369 -0.013340687 -0.00079258054 0.04274943
000090 73 56 13 3c 68 d8 c0 bd 15 0e d3 bc 13 80 d7 3b
       0.008992779 -0.09416276 -0.02576355 0.006576547
0000a0 fd 9d c4 bc de ab 81 bd 2c d6 ba bd d4 d5 29 bd
       -0.024001116 -0.06331609 -0.09122881 -0.041463688
0000b0 48 92 ea 3c af 13 6a bd 3c 6e 22 bd 28 44 91 bd
       0.028634205 -0.057147678 -0.03965591 -0.07093078
0000c0 a1 8a 9e bc 79 28 f8 bb 8a eb 8e bd 6a 4e e6 3c
       -0.019353213 -0.007573184 -0.06978519 0.028113563
0000d0 15 71 45 bd d9 35 73 bc 12 a9 7d 3d f2 84 56 3d
       -0.048203547 -0.014844381 0.061928816 0.05237288
0000e0 0b f7 6a bd a5 16 12 bd 38 66 c9 3c 93 ea cb 3c
       -0.057364505 -0.035666127 0.024584875 0.024892127
0000f0 1b 07 02 bc ce 4c 40 3a 6c 4f 24 3d 46 af 2a 3d
       -0.007936264 0.00073356635 0.040114805 0.04167106
000100 b2 64 b9 bc 25 28 db 3c 75 f9 e4 3c 39 6a 42 bb
       -0.022631023 0.02675254 0.027950982 -0.0029665364
000110 1e 44 00 bd 73 26 de 3a 08 bd cf b9 c2 4e 87 bd
       -0.03131496 0.0016948715 -0.00039622956 -0.06606819
000120 40 d6 c7 3a ff cb 86 3d fa ed da bb 6f 00 d7 bc
       0.0015246347 0.06581878 -0.006681201 -0.026245324
000130 19 a8 24 bd 0c d1 52 3d 34 2f af bc 3f 91 cc bc
       -0.040199373 0.051468894 -0.021384813 -0.024971602
000140 46 f4 01 3d 7a 30 f8 bc 91 0a 57 3c 3d bf 63 3c
       0.031727098 -0.030296553 0.013125078 0.013900575
000150 a7 17 04 3d 26 86 bc bb cf 86 a9 3c 96 f1 59 bd
       0.03224912 -0.0057532964 0.020694165 -0.05320891
000160 9b 8b 46 3c ab 63 b0 3b ad 13 04 bc 85 90 64 3d
       0.0121182455 0.005382975 -0.008061332 0.055801887
000170 0a ac 1a 3c 26 fa bd bc 97 4e ff 3b a9 2a 0a 3d
       0.009440431 -0.02319057 0.007791351 0.03373209
000180 01 d1 99 3b b6 fc f0 bc e7 78 b3 bc d3 58 09 bd
       0.0046941047 -0.029417377 -0.021908237 -0.033531975
000190 4e bd 01 3d 15 b5 a0 bc 5a 7e 1d 3d 58 7c 21 3d
       0.031674676 -0.019617597 0.038450576 0.039425224
0001a0 c7 6a 5a 3d e8 e4 6a 3b 66 1b 61 bc dd 9d c0 3b
       0.053324487 0.0035842005 -0.013739442 0.005878194
0001b0 53 06 2d 3c 86 44 8e bd 81 0a 1f bd 12 66 01 bb
       0.01056059 -0.069466636 -0.038828377 -0.0019744677
0001c0 74 65 83 bc cb 8a e1 3c 9b 90 b1 3c 11 46 91 bd
       -0.016039588 0.027532002 0.021675399 -0.07093442
0001d0 b5 9e ef bc 3b 91 8a 3a f8 9e 2d 3d 14 c3 53 3c
       -0.029250482 0.0010571847 0.042387933 0.012924928
0001e0 b1 c1 d7 3c a1 c0 44 bd a1 ab 46 3c 90 c5 3c 3d
       0.026337476 -0.048035268 0.01212588 0.046086848
0001f0 66 a9 1b 3d 0c 1c a5 3d 27 c1 22 bc f2 d6 28 3d
       0.038003348 0.0806199 -0.009933746 0.041220613
000200 f2 1d e4 bc b4 57 08 3d 24 c5 a9 3b 38 46 6b 3d
       -0.02784631 0.033286765 0.0051809717 0.057440013
000210 50 0f b0 3b ae 1d 2d bc dc cf 23 3d 10 1f cd 3c
       0.005372919 -0.010566158 0.039993152 0.025039226
000220 58 31 9a 3d 61 c4 4c bd a8 1f 6d bc 75 bf 30 3a
       0.07528943 -0.04999197 -0.0144728795 0.00067423965
000230 54 90 4d bd 50 ce ee 3b c2 40 90 3d e3 d9 55 bd
       -0.05018647 0.007287778 0.070436016 -0.052209746
000240 b1 3a e4 bc c6 3a 57 bd e4 b4 24 3c 22 e3 07 3b
       -0.027860017 -0.052546285 0.010052893 0.0020734747
000250 00 7a 04 bd 65 f8 07 3d 1c f6 71 3c e7 f3 c4 bc
       -0.03234291 0.03319587 0.01476815 -0.024042083
000260 3d 04 08 bd 16 b8 60 bb 59 ad c4 3c cf 67 e7 3c
       -0.033207167 -0.0034289411 0.02400844 0.028247742
000270 54 ee 68 bc 53 f0 bd 3c c0 b8 3b bd 73 d7 b9 bc
       -0.014216978 0.023185885 -0.04583049 -0.022685742
000280 c0 a8 4a 3c 3a 27 35 bd 57 0b 17 3d b3 d4 dc 3c
       0.012369335 -0.044226862 0.03687605 0.026956892
000290 31 22 21 3c 9e 0b 47 bd de d2 1a bc 13 85 0b 3d
       0.009834812 -0.048595063 -0.009449689 0.034062456
0002a0 9a e6 cc 3c ca e8 5a bd b6 99 95 3c 27 5d 8c bc
       0.025012303 -0.05344466 0.018261772 -0.017134262
0002b0 37 81 43 3d c1 c4 a2 3d 62 93 31 bd eb 3a 3b 3c
       0.04773065 0.07947684 -0.043353446 0.011427621
0002c0 00 1d 75 3d ca e6 04 bd f6 b5 8a bd a5 f6 83 3b
       0.05984211 -0.03244666 -0.067729875 0.004027205
0002d0 76 99 15 3d 71 7e 88 bd d8 13 55 bc fa 43 8e bc
       0.036523305 -0.06664742 -0.013005219 -0.017366398
0002e0 c6 07 be 3c 24 91 04 bd 72 b2 99 bd f7 29 6b bd
       0.023197066 -0.03236498 -0.07504739 -0.057413068
0002f0 bb d2 3e 3d 7c a9 5f 3d 0d b8 2c bd 82 1c 0c 3c
       0.046587687 0.054604992 -0.042167712 0.008551719
000300 77 86 2a 3d 10 5a 83 bc 93 d8 0b 3d 7c 73 e3 3c
       0.041632142 -0.016034156 0.03414209 0.027765028
000310 a0 18 e6 3c 01 9e 09 3d 2f c6 53 bc ed 6e 8e 3c
       0.028087914 0.03359795 -0.012925669 0.017386878
000320 e6 a5 58 bd a9 cf df bc 93 ed 09 bc 50 c9 31 bd
       -0.052892588 -0.0273207 -0.0084184585 -0.043404877
000330 fd 63 5f bd f1 d0 ce 3b fa 8d 66 3d a6 45 e3 3c
       -0.054538716 0.006311529 0.056287743 0.027743172
000340 b0 1c 1d bd 68 49 f2 bc 67 b3 db 3b b0 3d 9c bd
       -0.038357437 -0.029576018 0.006704736 -0.076289535
000350 cb 05 79 bd 84 da 75 3c e4 64 7b 3c cf 11 3c bc
       -0.06079654 0.0150057115 0.015343878 -0.011478855
000360 c5 2d 93 bb c2 b2 2b 3d cc 20 65 bd 54 63 97 3d
       -0.00449154 0.041918524 -0.05593948 0.07391992
000370 e5 83 5d 3d 25 d2 67 3c 43 b6 a1 3d 91 04 bd bc
       0.054080863 0.014149223 0.07896092 -0.023073466
000380 3d 78 5b 3d 35 9f 2c 3b 86 f4 8a 3c 23 0c 31 bd
       0.053581465 0.0026340012 0.016962301 -0.043224465
000390 cc f9 85 bd 88 98 92 bd 88 45 2e bc dd 2f 6b bd
       -0.065417856 -0.07157999 -0.010636695 -0.057418693
0003a0 0d 3e 64 bc 7a 98 6b 3d a7 31 6a bc 02 a8 86 bd
       -0.01393081 0.05751846 -0.014294065 -0.06575014
0003b0 9c a2 10 3d 8f ca 1d 3c ca 1e 38 bd 1f 6c 1d bc
       0.035311326 0.009630813 -0.044951238 -0.009608298
0003c0 d6 58 9a bc 0e b6 d0 bb d9 b8 f6 bc d4 00 e0 bc
       -0.018841188 -0.006369359 -0.03011744 -0.027344145
0003d0 25 22 3b bc 8a b0 eb bb 9d 09 1e bd 89 d2 98 3b
       -0.011421715 -0.007192676 -0.038583387 0.0046637696
0003e0 53 f2 5d 3d 1a eb 8f 3c 66 ce 2b bd 6f 4b 87 bc
       0.054186177 0.01756816 -0.041944884 -0.016515462
0003f0 ba 2c 5b bb c3 99 19 bd e4 fb 2c bd bc 8e da 3c
       -0.0033443407 -0.037500154 -0.04223241 0.02667939

net.0.bias f4 [128]
000000 58 3a 4f bc d9 17 f4 3a ca b9 13 bc 2f 78 3c bd
       -0.012648188 0.001862283 -0.0090164635 -0.046013054
000010 ca 12 f8 ba 31 6a 2d bd 5d 0c a0 bc 38 30 0e 3c
       -0.0018926498 -0.0423376 -0.019537145 0.008678488
000020 8f ad 38 3d 40 d2 1c 3d 78 92 bc bc 71 af 5d bd
       0.045087393 0.038286448 -0.02301906 -0.054122392
000030 13 1c 50 3d aa 18 cd bb 0c 0b e4 bc 49 96 49 bd
       0.050808024 -0.0062590437 -0.027837299 -0.04921559
000040 b7 9b 62 bd 42 54 a2 bc ac 1b 22 bd c3 1b a0 3c
       -0.055324282 -0.019815568 -0.03957717 0.019544488
000050 f4 53 45 3d a4 9c 91 bc 74 e3 42 bd 59 73 b2 bc
       0.048175767 -0.017774887 -0.047580197 -0.021783518
000060 b7 99 50 bc 67 6d b7 3b 5c 5b 5d 3d 72 88 60 bd
       -0.012731961 0.0055977586 0.054042205 -0.054817624
000070 de 84 39 3d 14 21 18 bd 14 e0 53 bd 7f cc 0b bc
       0.045292728 -0.03714092 -0.05172737 -0.008532642
000080 41 35 60 3c af 4f 8f bb e3 4c 33 bc 1a bc e9 3b
       0.013684572 -0.0043735127 -0.010943624 0.007133019
000090 a1 77 3b 3d 54 63 ce 3a 5d ad 12 3b f3 c4 07 bd
       0.045768384 0.0015746155 0.0022381165 -0.03314681
0000a0 be 9b 43 3b 35 1d 31 3c 83 b4 dd 3c 04 b2 0a 3c
       0.0029847468 0.010810186 0.027063614 0.008465294
0000b0 15 f6 d9 bc d0 03 75 3c e1 d9 9a bc bb 11 52 bd
       -0.026606599 0.014954522 -0.01890272 -0.05128644
0000c0 48 68 c0 ba 20 1b 9f 3c cb 71 84 bc 46 0c 11 bd
       -0.0014679516 0.019422114 -0.016167542 -0.035412095
0000d0 51 3b 17 bd b2 c7 d6 3c 8a eb 52 3a 2c 15 10 bd
       -0.036921803 0.026218269 0.00080459623 -0.03517644
0000e0 71 f4 5c 3d b1 81 53 3d 81 49 2e bb 93 56 c9 3c
       0.053944055 0.051637355 -0.0026594105 0.024577415
0000f0 52 ff d9 3c b9 8e 3c bd 90 93 32 3d aa 5a 34 3d
       0.026611004 -0.04603455 0.043597758 0.044031776
000100 f5 d3 c5 bc 12 9e 5c bd 44 d5 66 bd d9 e8 06 3c
       -0.02414892 -0.053861685 -0.05635573 0.008234226
000110 30 dc cc bc 4c b1 39 bd 18 ac fa 3c ff 10 2a 3d
       -0.025007337 -0.0453351 0.030599639 0.041520115
000120 9c 31 1f bd e3 3f 03 bd 31 35 51 3d dc 36 ed 3c
       -0.03886567 -0.03204335 0.051076118 0.028956823
000130 be 7e 9f bc 69 5c b4 bc 4a 2b cf bc 3a ec 2a bd
       -0.019469615 -0.02201672 -0.025289197 -0.04172919
000140 26 18 e8 bc 4e d6 bd 3c 9e 19 5d 3c 88 9e 37 bd
       -0.028331827 0.023173478 0.013494877 -0.04482892
000150 0a 7d 2b 3d 4c 3e e1 3c 6a be a3 bc f0 9e dc bc
       0.041867293 0.027495526 -0.019988257 -0.026931256
000160 37 07 9b bc 72 88 3d 3d 73 c9 21 3c 05 34 e4 bc
       -0.018924339 0.046272703 0.009874689 -0.027856836
000170 31 e1 22 bd f5 d6 c3 3c 79 fa 61 3b 76 8f 4d bc
       -0.03976554 0.02390621 0.0034481569 -0.012546411
000180 78 2c 85 bc 18 45 dd bc 6c e7 1a bd 7b da c4 3c
       -0.016256556 -0.027010486 -0.037818357 0.02402996
000190 17 00 d9 ba 89 a9 11 bd b0 8a 1a bd 71 53 67 3d
       -0.0016555813 -0.035562072 -0.03772992 0.05647606
0001a0 27 a5 0d 3c 34 d1 64 3c 3a 55 12 bb 82 fc 04 3d
       0.008645332 0.013965894 -0.002232863 0.032467373
0001b0 de 3d 0f bd 26 bf 30 bd ea 76 07 bd 63 bb 50 bd
       -0.03497111 -0.043151043 -0.03307239 -0.050959956
0001c0 e0 db ce bc 41 a4 62 bd 93 71 58 bd b4 7b 59 3d
       -0.025251329 -0.055332426 -0.052842688 0.053096488
0001d0 35 3c 4f 3c 6e 74 26 bd c8 25 6d bd 27 67 35 3c
       0.012648632 -0.04063838 -0.05789736 0.011071957
0001e0 3a 3d 2a 3b fa 54 c5 3c 84 fc 54 bc 21 30 10 3a
       0.0025976435 0.024088372 -0.012999658 0.0005500336
0001f0 23 de 97 3c 82 aa 53 3d b0 a1 d7 3c e2 b2 13 bd
       0.01853854 0.05167628 0.026322216 -0.036059268

net.1.weight f4 [128]
000000 62 1b 84 3f 85 9c 7f 3f 80 8a 83 3f 08 92 7b 3f
       1.0320857 0.99848205 1.0276642 0.982697
000010 b7 70 7c 3f 1d a1 85 3f 74 70 80 3f c0 55 83 3f
       0.9860949 1.0439793 1.0034318 1.0260544
000020 5a 63 84 3f 66 db 75 3f 20 02 83 3f 86 d6 83 3f
       1.034282 0.960379 1.0235023 1.0299842
000030 5e e0 80 3f 48 0b 84 3f 80 38 79 3f 1b b1 6c 3f
       1.0068471 1.0315943 0.9735184 0.9245774
000040 f7 23 7d 3f dd fa 7f 3f 0f ec 7f 3f e8 a3 82 3f
       0.98883003 0.9999216 0.9996957 1.020627
000050 b1 c0 85 3f 44 ab 81 3f ad 24 7f 3f e1 1c 84 3f
       1.044943 1.0130391 0.9966534 1.0321313
000060 47 94 81 3f da 38 80 3f 41 76 84 3f 90 e2 84 3f
       1.0123376 1.001735 1.0348588 1.0381641
000070 84 19 7b 3f 84 1d 84 3f 68 b4 74 3f 0f 8f 84 3f
       0.9808581 1.0321507 0.9558778 1.0356158
000080 ed fa 83 3f 53 b3 82 3f eb 09 86 3f b8 9a 85 3f
       1.0310951 1.0210975 1.0471777 1.0437841
000090 89 d8 7e 3f 2d 43 85 3f d5 e4 84 3f 0f a0 7e 3f
       0.99549156 1.0411125 1.0382334 0.9946298
0000a0 07 30 7a 3f 7c 35 84 3f 24 87 7e 3f 91 6a 83 3f
       0.97729534 1.0328822 0.9942496 1.0266896
0000b0 4f db 83 3f 3b 6f 83 3f 80 c4 7e 3f b6 95 75 3f
       1.0301303 1.026832 0.99518585 0.95931566
0000c0 41 73 84 3f ed 71 84 3f 57 4a 80 3f 30 1f 85 3f
       1.0347673 1.0347267 1.0022687 1.0400143
0000d0 5b 20 7f 3f 06 21 7c 3f 40 2a 83 3f fb 9f 82 3f
       0.99658746 0.9848789 1.0247269 1.0205072
0000e0 a9 66 88 3f b1 82 7d 3f ee f5 6d 3f 1b 55 73 3f
       1.0656329 0.99027544 0.92953384 0.95051736
0000f0 18 05 79 3f 93 1e 84 3f ff 24 85 3f b8 31 83 3f
       0.972734 1.032183 1.0401915 1.0249548
000100 7c 88 89 3f aa 93 77 3f 5c 91 83 3f 69 af 82 3f
       1.0744777 0.9670969 1.0278735 1.0209781
000110 84 fe 84 3f 02 83 82 3f 96 ed 78 3f 11 f3 80 3f
       1.0390172 1.019623 0.9723753 1.0074178
000120 c6 47 84 3f aa 22 80 3f 2c 09 82 3f 77 dc 79 3f
       1.0334404 1.0010579 1.0159049 0.9760203
000130 3e 9e 7e 3f a5 2a 7d 3f c4 31 80 3f 38 b1 80 3f
       0.9946021 0.98893195 1.0015187 1.0054083
000140 84 85 7c 3f 00 eb 79 3f e1 cc 82 3f e6 fc 78 3f
       0.9864123 0.97624207 1.0218774 0.9726089
000150 62 19 83 3f e4 86 86 3f a6 2d 84 3f c3 9d 84 3f
       1.0242121 1.0509915 1.0326431 1.0360645
000160 94 c4 71 3f 1c 6b 7d 3f 9a 6e 81 3f 03 27 7d 3f
       0.9444058 0.9899156 1.0111878 0.9888765
000170 e9 43 7e 3f 0e 41 72 3f 99 38 82 3f af 3a 85 3f
       0.9932237 0.94630516 1.0173522 1.0408534
000180 f1 da 7d 3f 14 b4 83 3f 3f 4d 76 3f 32 a5 84 3f
       0.99162203 1.028933 0.9621162 1.0362914
000190 e2 de 80 3f 4e b4 82 3f be ad 86 3f 5f 09 82 3f
       1.0068018 1.0211275 1.0521772 1.015911
0001a0 11 d9 7f 3f 51 4f 84 3f df 66 7f 3f da 2b 7e 3f
       0.9994059 1.0336705 0.99766344 0.9928566
0001b0 b4 61 77 3f 0d 96 7e 3f 04 96 83 3f 35 c7 86 3f
       0.9663346 0.9944771 1.0280156 1.0529543
0001c0 ea 0b 80 3f 24 f6 84 3f 8e ab 78 3f 6b 78 89 3f
       1.0003636 1.0387616 0.9713677 1.0739874
0001d0 5f d2 7f 3f 9b 22 77 3f d6 f4 82 3f 6e 6f 82 3f
       0.99930376 0.9653718 1.0230968 1.0190256
0001e0 d6 98 87 3f 3f 33 7e 3f 7d df 80 3f c3 a2 7b 3f
       1.0593517 0.99296945 1.0068203 0.9829523
0001f0 df 6f 77 3f 0e 81 78 3f 8e fb 87 3f 8e c8 7a 3f
       0.96655077 0.9707192 1.0623643 0.9796227

net.1.bias f4 [128]
000000 d6 da 93 bd 8f e3 79 bd 15 14 2a bd ce 04 76 bd
       -0.07219474 -0.061008032 -0.041523058 -0.060063176
000010 e2 92 46 bd 94 a9 49 bd f3 7f 56 bd 19 67 0d bd
       -0.048479922 -0.049233988 -0.052368116 -0.03452215
000020 fc 65 b6 bc c3 7e 81 bd 7b 82 3f bd ea 5d 31 bd
       -0.022265427 -0.06323006 -0.046755295 -0.043302454
000030 b0 d9 1d bd 36 a0 6f bd 87 f1 1e bd 37 06 72 bd
       -0.03853768 -0.0585024 -0.038804557 -0.05908796
000040 e2 18 f7 bc 08 f1 08 bd 77 30 52 bd 58 42 01 bd
       -0.030163232 -0.03343299 -0.05131575 -0.03155741
000050 19 63 81 bd 4a b1 31 bd a3 6f 5f bd fd ca 84 bc
       -0.063177295 -0.043381967 -0.054549824 -0.016210074
000060 6f 1b 4b bd 5b e9 68 bd c3 5b 5d bd 3a aa 05 bd
       -0.04958671 -0.05686317 -0.05404259 -0.032633044
000070 43 0c fd bc 14 c3 68 bd ed 4d 44 bd 9a 0d c6 ba
       -0.030889636 -0.056826666 -0.04792588 -0.0015110255
000080 c1 a9 59 bd 5a bb 17 bd e3 c2 5a bd ba 5c b8 3b
       -0.053140406 -0.037043907 -0.053408515 0.0056262882
000090 07 86 82 bc 0e 89 b4 bd fa a6 97 bd 2d 82 d0 bc
       -0.01593305 -0.088152036 -0.07404895 -0.025452698
0000a0 95 3e e2 bc 50 4f 59 bd e1 e1 2a bd cb ba 4b bd
       -0.027617732 -0.053054154 -0.04171932 -0.049738687
0000b0 09 4d 3a bd bf 59 89 bc 49 39 6e bd 5a 80 4e bd
       -0.045483623 -0.016766427 -0.0581601 -0.050415374
0000c0 40 58 82 bd 55 cc 8f bd 03 f6 8c bd 39 55 a7 bd
       -0.063644886 -0.07021395 -0.068828605 -0.08170552
0000d0 ac 15 79 bc 3e 03 d3 bc eb f5 67 bd cd 81 3e 3c
       -0.015202921 -0.025758382 -0.05663101 0.011627627
0000e0 6f 4b 29 bd 0e 71 7e bd 6f cf 6a bd 09 44 94 bd
       -0.041331705 -0.062119536 -0.05732673 -0.07239539
0000f0 d3 74 9e bd 0e b7 5a bd 27 10 1f bd aa 24 61 bd
       -0.07737126 -0.05339723 -0.038833763 -0.054966606
000100 d9 8d 8a bd 41 63 59 bd 33 80 83 bd 3b e4 80 bd
       -0.067653365 -0.05307317 -0.064209364 -0.062935315
000110 16 0e 84 bd 8f db a0 bd 62 ad 48 bd 78 82 36 bd
       -0.06447999 -0.078543775 -0.048993476 -0.04455802
000120 99 01 9a bc de 00 03 bd d5 87 82 bd 01 ef 62 bd
       -0.01879959 -0.03198325 -0.06373564 -0.055403713
000130 7d 32 62 bd 7c ad 5d bd fe 58 8f bd 83 d9 3a 3b
       -0.05522393 -0.054120526 -0.06999396 0.0028510995
000140 80 00 29 bd d4 ad 5b bd 67 3c 8b bc f8 e0 29 bd
       -0.041260242 -0.053632572 -0.016996576 -0.041474313
000150 2a 9a 08 bd a6 40 46 bd b7 aa e8 bc 42 4c 9c bc
       -0.033350147 -0.048401497 -0.028401716 -0.019079331
000160 eb 59 64 bd 02 06 10 bd 8a 44 41 bd 90 94 fb bc
       -0.055749815 -0.03516198 -0.047184505 -0.030710489
000170 84 17 31 bd 90 b7 79 bd ed 85 6e bc 27 3f 93 bc
       -0.043235317 -0.060966074 -0.014558298 -0.01797445
000180 77 87 23 bc 42 f9 db 39 8b 52 ff bc 33 56 92 bd
       -0.009981028 0.00041956647 -0.03116729 -0.071453474
000190 c3 1f 7b bd 6d e4 5f bd 5f c5 a4 bd 96 37 26 bd
       -0.061309587 -0.054661203 -0.08045458 -0.040580355
0001a0 ba 2f 7e bd f1 3a ef bc 66 a4 76 bd 69 76 22 bd
       -0.062057234 -0.02920291 -0.060215376 -0.039663706
0001b0 5d 94 33 bd 10 71 7a bd 26 85 2c bd 62 1d 31 bd
       -0.043842662 -0.06114298 -0.042119168 -0.043240912
0001c0 d8 d7 54 bd 6e 16 62 bc 03 f2 a5 bc 68 c4 af bd
       -0.051963657 -0.013799293 -0.020257002 -0.085823834
0001d0 18 d3 12 bd 5f 9d 21 bd 70 bc 3b bd 63 b1 2c bd
       -0.035845846 -0.03945672 -0.045834005 -0.042161357
0001e0 11 ae 61 bd ed 64 60 bd a1 29 38 bd 16 7b 5c bd
       -0.055097643 -0.05478375 -0.044961575 -0.05382832
0001f0 1f ec 4e bd 16 8a 3f bd ed 9e 41 bd 94 a7 20 bd
       -0.05051815 -0.04676255 -0.047270704 -0.039222315

net.1.running_mean f4 [128]
000000 10 a9 f3 3e ae d4 38 be 1c aa 0e bd 3e 8a 22 3f
       0.47589922 -0.18049881 -0.034830198 0.6349219
000010 ca db 9a 3e c4 d8 df 3e b5 cc e8 bd 7d 48 38 bd
       0.3024581 0.43720067 -0.1136717 -0.044991005
000020 7a a2 96 be ac e8 9c 3e 32 44 b6 be 68 c1 12 3f
       -0.29420835 0.30646265 -0.35598904 0.57326365
000030 9a 92 46 3e 75 1b 57 bd 49 7e 90 bd 64 78 e7 3d
       0.19391862 -0.05251642 -0.07055337 0.113022596
000040 6e 19 89 be b0 00 f4 3d f8 3d 59 3e 8c ee 7f 3e
       -0.26777214 0.11914194 0.21215045 0.24993342
000050 e9 77 1c 3e 72 23 9e 3e df b0 c6 bd 7d e0 79 be
       0.15280117 0.30886418 -0.09701704 -0.24402042
000060 23 cc 27 3f 0b 44 b9 3e 41 15 24 3d 90 f2 a5 bd
       0.6554586 0.36184725 0.04005933 -0.08102906
000070 b7 fc 92 be 7f 95 8c 3e ea f0 b9 3d 17 5a 71 bc
       -0.2870843 0.27457806 0.09079154 -0.014730952
000080 23 1f 21 be 80 fe 89 39 07 e7 65 bb 97 c6 20 3e
       -0.15734534 0.00026320294 -0.003508033 0.15700756
000090 11 c7 18 3e be 9a d1 3e 33 82 a9 bd ea d3 0e 3e
       0.14919688 0.4093837 -0.08276787 0.13948026
0000a0 30 a2 8a ba 5e 03 f2 3e 63 ea 83 be f0 6f e8 3e
       -0.00105769 0.47268194 -0.2576476 0.45397902
0000b0 b4 0b ad 3d fd 4a 4a be ab 41 d3 3e 37 1e 30 bd
       0.08449498 -0.19755168 0.41261038 -0.042997565
0000c0 bf 39 97 be 5d 30 4b 3e 8d 92 a4 be 34 4f f5 3e
       -0.29536244 0.19842668 -0.3214306 0.4791199
0000d0 55 80 1e 3e 5f 23 90 be 6d 5d a4 be ba 5b c1 3d
       0.15478642 -0.28151986 -0.32102528 0.094413236
0000e0 8a b3 53 3e 29 8e a9 3d 28 31 de 3e 9c 8f 6b 3e
       0.20673957 0.08279068 0.43396878 0.23004001
0000f0 c8 02 72 bc b8 84 ab bd 52 72 9d be 1d e3 99 3e
       -0.014771171 -0.083749235 -0.30751282 0.30056086
000100 bd bf 2f 3f e5 cb 0a be 96 95 bd be 90 86 82 bc
       0.68651944 -0.13554342 -0.37028188 -0.015933305
000110 ed b5 b6 3e 28 68 ee 3e d8 3a 72 bb 4b 93 24 be
       0.35685673 0.4656384 -0.0036961343 -0.16071813
000120 56 bc 65 bf e4 6c 4c be 83 65 3e be 12 27 df be
       -0.897405 -0.19963413 -0.18593411 -0.43584496
000130 93 cb c6 3c 15 d8 47 be 98 9e b9 3e c6 d3 f5 bd
       0.024266994 -0.19516023 0.3625381 -0.12003283
000140 56 dc df 3c ee a7 e2 3e ac 5f 88 be e5 c2 be be
       0.027326744 0.44268745 -0.26635492 -0.37258068
000150 91 1e ff bc 1d 30 a6 3e 66 f1 40 3e 12 c3 1c be
       -0.031142505 0.32458583 0.18842086 -0.15308788
000160 be 61 fb 3c 37 13 1a 3e be f5 cc 3e 3d a9 81 bd
       0.030686256 0.15046392 0.40031236 -0.06331108
000170 b1 61 cf be 1b b9 08 3e fb 90 83 3e 1b 97 42 3e
       -0.4050422 0.13351862 0.2569655 0.19002955
000180 6c 2a d2 3e 3a 43 7d be a4 ef 04 3b fd 7c e5 3d
       0.4104799 -0.24732676 0.0020284439 0.1120548
000190 6e 27 de 3e 82 5b 8e be 02 8a d7 3e 61 66 89 3e
       0.43389457 -0.2780419 0.4209748 0.2683592
0001a0 b5 c6 79 3d c6 5e d3 3d 68 b7 0e 3f 40 dd dc be
       0.060980517 0.10320811 0.55748606 -0.4313755
0001b0 ef 27 c0 3e 15 50 a2 3e 22 05 00 3f d5 b7 ad be
       0.37530467 0.31701723 0.5000783 -0.33929315
0001c0 d5 fd 87 3c 41 aa 89 bc 8f 0b 27 3e 93 68 d1 3e
       0.016600529 -0.016804816 0.16313003 0.40900096
0001d0 e5 b1 0d 3f 3b 8b b1 3e 45 39 bf 3e 01 4f 56 3e
       0.5534957 0.34676537 0.3734838 0.20928575
0001e0 ec 35 42 3f d0 53 89 be be 1c 1a be 93 59 9b bd
       0.7586353 -0.26821756 -0.15050027 -0.07585444
0001f0 9c 72 bc 3d a9 cf bb 3e 76 41 99 3e db 0c c8 bc
       0.092015475 0.3668187 0.29932755 -0.024420192

net.1.running_var f4 [128]
000000 75 95 bc 3d 89 51 a7 3d b4 2a 97 3d 02 f9 07 3e
       0.09208194 0.081698485 0.07381192 0.13278583
000010 01 39 a9 3d 53 8f 00 3e de bd c4 3d 9d 1d 8b 3d
       0.08262826 0.12554674 0.09606527 0.06792758
000020 a5 66 9c 3d ea ff e6 3d 4e 63 9a 3d af 80 f1 3d
       0.076367654 0.112792805 0.07538472 0.117921226
000030 c2 34 e5 3d 68 2c fd 3d b4 2f b2 3d f7 d5 b1 3d
       0.111917034 0.123619854 0.08700505 0.08683389
000040 fc bc 85 3d 67 7a b6 3d 49 75 b9 3d 62 95 f1 3d
       0.065301865 0.08910065 0.090555735 0.11796071
000050 2e 04 df 3d 32 a1 bf 3d 5c ab 9e 3d 6f c7 b2 3d
       0.10889469 0.093569174 0.07747528 0.08729445
000060 99 12 cf 3d 02 72 c4 3d 79 c7 b7 3d 0d 3c 86 3d
       0.10110969 0.09592058 0.08973593 0.065544225
000070 8e e4 d1 3d 2c 0e d3 3d 4b e4 e8 3d b6 ed 78 3d
       0.102486715 0.103054374 0.113716684 0.060773574
000080 1c 3c 9b 3d 6c 21 d2 3d 77 df f1 3d d4 26 b0 3d
       0.07579824 0.10260281 0.11810201 0.08601156
000090 bc 36 8b 3d 29 aa 81 3d 76 c0 b7 3d 66 15 d0 3d
       0.06797549 0.063312836 0.08972256 0.101603314
0000a0 23 6e bf 3d 6a 5e b2 3d 39 d3 a6 3d 9d ff 7a 3d
       0.09347179 0.08709414 0.08145756 0.061278928
0000b0 63 71 cb 3d 90 f2 d4 3d 2d d4 b5 3d e6 5b 8e 3d
       0.09933736 0.103978276 0.0887836 0.06951122
0000c0 58 97 c6 3d b4 6d 9c 3d 85 ac ac 3d 98 e5 af 3d
       0.09696835 0.07638112 0.08431343 0.085887134
0000d0 c4 50 ca 3d e7 5b bd 3d 54 dd 00 3e 6c 45 8b 3d
       0.09878686 0.092460446 0.1258443 0.068003505
0000e0 77 24 cb 3d 57 9d e6 3d 0f 5a 13 3e 83 e4 b0 3d
       0.099190645 0.11260479 0.14389823 0.08637335
0000f0 dd 00 b8 3d 61 8d d6 3d fc d4 72 3d ff 89 cc 3d
       0.0898454 0.10476185 0.05928515 0.09987258
000100 07 9a a5 3d 72 8f b9 3d a8 12 9e 3d ca 45 e0 3d
       0.08086019 0.09060563 0.07718402 0.10950811
000110 bb 2c cb 3d 33 3e b5 3d 8a 08 95 3d c9 2a aa 3d
       0.09920641 0.08849754 0.07277019 0.08308942
000120 25 ef 98 3d 3d a7 80 3d 9b df 0a 3e 07 7b d5 3d
       0.07467488 0.06281898 0.13561861 0.10423856
000130 a4 75 e6 3d ef 8c da 3d 91 69 d0 3d 29 7f ad 3d
       0.11252907 0.10671412 0.10176385 0.084715195
000140 27 5a c3 3d 1d 25 e1 3d 33 0e 6a 3d 18 06 bc 3d
       0.095386796 0.10993407 0.057142448 0.0918085
000150 24 78 9a 3d 23 ec f0 3d 45 2e d2 3d 0a a9 a9 3d
       0.07542446 0.117637895 0.102627315 0.08284195
000160 0d 0b d3 3d 83 79 ec 3d fa e6 9b 3d 7a 80 88 3d
       0.10304842 0.11546614 0.07612415 0.0666513
000170 bb 02 d4 3d 60 95 da 3d fb 6c 90 3d 63 d3 25 3e
       0.10352083 0.10673022 0.070520364 0.16193919
000180 b9 86 97 3d 8f 7e cb 3d 3b e8 d2 3d 82 db bc 3d
       0.07398743 0.099362485 0.10298201 0.09221555
000190 3e e0 98 3d 8b 9f 9e 3d fe 2f 60 3d 59 04 b1 3d
       0.07464646 0.07745274 0.05473327 0.086434074
0001a0 3a 4a ec 3d 96 e5 08 3e f6 40 d3 3d ec 52 b8 3d
       0.11537595 0.1336883 0.10315125 0.09000191
0001b0 a6 de b0 3d d1 ce f9 3d 5c d8 e5 3d d2 6d a2 3d
       0.08636217 0.1219765 0.11222908 0.07931103
0001c0 2f b0 b6 3d 95 7c 9b 3d 65 b7 b4 3d 1b a9 82 3d
       0.08920323 0.075921215 0.08824042 0.063799106
0001d0 98 f2 f8 3d 62 19 ce 3d 78 57 e3 3d ac 13 0a 3e
       0.12155646 0.10063435 0.11100668 0.13484067
0001e0 f5 91 a2 3d 11 86 a6 3d 65 9b a4 3d 1a 86 f7 3d
       0.07937995 0.0813104 0.08037452 0.12086125
0001f0 6f c7 14 3e ce df fc 3d f8 cf b0 3d de a7 89 3d
       0.14529203 0.12347375 0.08633417 0.06721471

net.4.weight f4 [64, 128]
000000 41 2f ee bc 69 c8 8a 3c 61 97 9e 3d 75 8f 0f 3d
       -0.029075267 0.016941266 0.07743717 0.03504892
000010 0d 24 a7 3d 91 10 6d bd 89 dd 99 bd 85 b4 60 bd
       0.08161173 -0.057877127 -0.075129576 -0.054859657
000020 0b 90 a4 bd 17 c1 99 bd b0 c6 34 bd a5 e9 0f bd
       -0.080352865 -0.07507532 -0.044134796 -0.03513493
000030 f6 95 b7 3c e0 d7 f7 3c 80 09 ad bb 23 0d 9d 3d
       0.022410374 0.030254304 -0.0052806735 0.07668521
000040 8a 02 8d bc 82 c0 b4 bc 0b bd 72 3c 20 7c 9b 3b
       -0.017213125 -0.022064451 0.014815579 0.0047450215
000050 d6 32 4c bd 53 eb 2a 3d b1 cb 6f bd 02 cb c4 3d
       -0.04985317 0.04172833 -0.058543865 0.09609033
000060 3a 94 ce bd a1 e4 5a 3d 17 d3 b3 3d 3c 9a 98 3d
       -0.10086866 0.053440694 0.087804966 0.07451293
000070 02 3c a1 3d 22 e6 4d bd b5 78 cc bd de 89 91 3d
       0.07872774 -0.0502683 -0.099839605 0.07106374
000080 7e 03 9f 3d 0f 97 e8 3c 59 e6 b8 bd af 43 92 bd
       0.07764338 0.028392343 -0.0902831 -0.07141816
000090 f3 aa 0f bc 60 07 df bc 8d 08 bd 3c 07 7f d7 bd
       -0.008768785 -0.027225196 0.023075366 -0.105222754
0000a0 08 f4 a4 bd 4e 39 9a 3c a2 09 1b bb e6 80 1c 3b
       -0.08054358 0.018826153 -0.0023656865 0.002388054
0000b0 6f 31 24 bc 70 8b 0d 3d 3f 5e 90 ba 47 7e 8a 3d
       -0.0100215515 0.034556806 -0.0011014416 0.06762367
0000c0 61 df 9d 3c eb 32 ad bd eb 13 50 bc f4 81 8c bc
       0.019271554 -0.084569775 -0.012700061 -0.01715181
0000d0 99 f1 9e bc 24 76 31 3d 01 23 d5 3d 42 5d fc 3c
       -0.019402312 0.04332556 0.10407067 0.030806188
0000e0 3b 3f b8 bd a1 2a de 3d fd d7 5f bd ec a5 38 bd
       -0.08996435 0.108479746 -0.05464934 -0.04508011
0000f0 90 7b ec bc 6e be b6 bd 28 f3 ef bc fe 88 cf bc
       -0.028867513 -0.0892304 -0.02929075 -0.025333878
000100 30 a3 4f bd 4d 4b f7 3c e6 a7 b1 3d bf 67 b8 bd
       -0.050692737 0.030187273 0.08674602 -0.09004163
000110 c0 ac b1 bd d2 3d 1e bc a7 89 4b bd ba 9e 38 3c
       -0.086755276 -0.009658294 -0.049691822 0.011268312
000120 a6 76 5e 3a bb 52 85 3c 75 3c e3 3b 3a da 48 bd
       0.0008486308 0.0162748 0.0069346973 -0.049036242
000130 04 64 d4 b9 f8 d3 46 3d 18 e6 c5 bc d9 f1 24 bc
       -0.00040510308 0.048541993 -0.024157569 -0.010067427
000140 31 99 10 bd 52 49 6a bc bd f1 34 bd 2f f8 4f 3d
       -0.035302345 -0.0142997075 -0.044175852 0.050773796
000150 05 cd b2 bc f8 db 68 bd 21 7a 8c 3c d7 95 c5 bc
       -0.021826277 -0.056850404 0.01714808 -0.0241193
000160 26 42 29 bd 15 ff d0 3b 2e e5 67 3c 51 aa 67 3c
       -0.04132285 0.0063780644 0.014153762 0.014139728
000170 46 04 ba 3d 7d 02 df 3c 1c cc d3 3d b6 27 1b 3d
       0.09082846 0.027222866 0.10341665 0.03787967
000180 31 ba 8e 3d 9a af 5e 3d c5 63 4f 3d 9c 24 55 bd
       0.06969107 0.054366685 0.050632257 -0.052036867
000190 e2 90 4e bd 9d fa 6e bd 5c 4a af bd e2 22 9e bc
       -0.05043114 -0.058344472 -0.08559105 -0.019303743
0001a0 e1 6d df 3d 33 88 33 bd 86 1c 2e bd 2c 9c 83 bd
       0.109096296 -0.04383106 -0.04250767 -0.06426272
0001b0 a6 db 50 3b 1d 71 d1 3a 96 7b 72 bd cd 70 cf 3d
       0.0031869202 0.0015979145 -0.059199892 0.10128937
0001c0 f0 55 36 3d fa 82 01 3d fd 15 86 bd 79 24 d2 bb
       0.04451555 0.03161905 -0.06547163 -0.0064130393
0001d0 b1 61 b1 ba 92 f5 d3 bc a0 7e 05 bd 69 92 c2 bd
       -0.0013533143 -0.025873933 -0.032591462 -0.09500582
0001e0 49 a4 23 3c a0 e2 49 3d f7 20 ef bb c1 df c5 bb
       0.009987899 0.049288392 -0.007297631 -0.0060386364
0001f0 01 1f b5 3d 02 a7 a7 bc ba 7a 15 bd 1f ed 14 bc
       0.08843804 -0.020465378 -0.036493994 -0.009089737
000200 29 25 90 3d 23 e3 05 bd 6b b2 d7 bc ee 44 be 3c
       0.07038338 -0.032687318 -0.026330194 0.023226228
000210 42 76 bc bd 84 e5 29 ba 5b 41 9c bd 3a 51 46 bd
       -0.092022434 -0.0006481039 -0.07629653 -0.048417307
000220 6d 3a 9e bb 9f 5e a0 3c 32 49 af bd d7 68 57 3d
       -0.0048287422 0.019576369 -0.08558883 0.052590217
000230 07 75 8c 3d 0c f6 4b 3c fe 7f 87 3d e9 bd 38 bd
       0.06858259 0.012448799 0.066162094 -0.045102987
000240 e2 b1 a8 bd 45 c9 0e 3d f0 5f 91 bc 53 c5 8d bd
       -0.082370535 0.034859914 -0.017745942 -0.06922402
000250 6b eb 54 bd e5 4e 2d 3d 5d 74 62 3d 67 04 af bd
       -0.051982325 0.042311568 0.055286754 -0.085457616
000260 77 b8 96 bc a0 7c a8 bb 9d 16 53 3c 75 37 88 bd
       -0.018398507 -0.0051418096 0.012883809 -0.066512026
000270 7d ce 74 3d 6c 42 e6 3c 0b 19 59 3d de 3c d8 3c
       0.059767235 0.028107844 0.0530024 0.026396211
000280 88 42 4c bd ad b4 ba bc 96 e2 6d bd c8 55 9f bd
       -0.049868137 -0.022791231 -0.058077417 -0.07780033
000290 f6 0a 25 3d 20 e3 44 3a e7 7b 65 3d 0b bf 74 3d
       0.040293656 0.0007510651 0.056026366 0.059752505
0002a0 a3 a0 92 bd 88 e3 d8 3d 1c e0 05 bd 7c 20 d7 3d
       -0.07159545 0.10590273 -0.03268443 0.10504243
0002b0 3d 26 37 bd 34 94 9d bc 48 fc 9c ba 05 5a 9c 3a
       -0.0447142 -0.019235708 -0.0011977041 0.0011928683
0002c0 76 5f 49 bd 9b 17 cb 3d 61 5d c9 bc fd 47 d1 3d
       -0.049163304 0.09916612 -0.02458066 0.10218809
0002d0 c1 01 e0 bc 0c 8c f2 3c 2a db 32 3c d6 70 6a bd
       -0.027344586 0.029607795 0.010916511 -0.057236515
0002e0 cf 53 fd 3c bd d2 d8 3c 3c e3 50 3d 96 2b 60 3d
       0.030923752 0.026467675 0.050997958 0.054729067
0002f0 e5 ce 76 3d 0b 47 13 bd da c0 39 bc 09 d8 a6 3d
       0.060255904 -0.035956424 -0.011337483 0.08146674
000300 e8 bc 65 3d d3 33 cb 3c 10 5c 95 bd d0 fb 73 3d
       0.05608836 0.024804985 -0.0729295 0.05956632
000310 9a f3 99 3d 79 92 1d bc a6 27 8c bb f6 0f f1 ba
       0.075171664 -0.009617441 -0.0042771874 -0.0018391598
000320 9c ec 8d bd 73 80 9b bc 8d 96 bc bd ea 44 d2 ba
       -0.06929895 -0.018982148 -0.09208403 -0.0016042267
000330 ed 2f 46 3c 3f 76 e7 bc ca 35 8c 3d 70 dc ba bd
       0.012096387 -0.028254626 0.06846197 -0.09124076
000340 30 f9 c7 3b 45 c4 2a 3d 7b 9d a3 3b 2d 8b 3f bd
       0.0061027035 0.041691083 0.0049931384 -0.046763588
000350 74 80 48 3d b3 15 4f bc 16 c1 de 3c 3c 55 d0 bb
       0.048950627 -0.012639451 0.02719168 -0.006357817
000360 47 d3 70 bc fe 3a 3e bc 4c a5 8b 3d 4d 09 be bc
       -0.01469881 -0.0116107445 0.06818637 -0.023197794
000370 bd 28 40 bd db c0 53 3d 1f 6c 5c 3d 1b c3 27 3b
       -0.04691385 0.051697593 0.05381405 0.002559847
000380 9a 22 3a bd b4 e6 a7 bd 25 4e 86 bd e6 4a 39 3d
       -0.045443155 -0.081983 -0.06557874 0.045237444
000390 f6 91 ad 3d f9 c0 ab bd c6 03 8c 3d 06 2d 52 ba
       0.084751055 -0.08386416 0.06836657 -0.0008017573
0003a0 87 90 f4 3c 0d f9 6d 3c d9 ff 2b 3d b1 66 bc bd
       0.029854072 0.01452471 0.041992042 -0.09199274
0003b0 77 7a 1a 3b d1 bd 62 3d 5d c8 9e 3d da 74 9b bd
       0.002357153 0.055356804 0.0775306 -0.07590647
0003c0 b9 62 c9 bc ea 5c 6e bd a0 cd fb bc 24 06 b6 3d
       -0.024583207 -0.05819408 -0.030737698 0.0888789
0003d0 1e 7a 62 bd a0 26 25 3b ab 4c 93 bd b2 2d 42 bd
       -0.05529224 0.0025200024 -0.07192358 -0.04740686
0003e0 3b 29 a8 3d 2a ea 94 3c 6f 3b 76 3d de c6 92 bd
       0.08210989 0.018178064 0.060115274 -0.07166837
0003f0 27 92 6c 3d a5 2c 93 3d 45 e6 14 3d 19 b1 3c 3d
       0.05775657 0.0718625 0.036352415 0.04606733

net.4.bias f4 [64]
000000 e8 f7 94 bd e5 bb 19 3c 46 78 2e 3d e7 91 95 bc
       -0.07273847 0.009383176 0.04259517 -0.018258048
000010 cf 4a 0b bd 69 88 a4 3c 35 7b 6a bd d7 97 5a bd
       -0.03400689 0.020084577 -0.057246406 -0.053367462
000020 21 e0 8f 3b fd 2b 0e bd 10 0a 88 35 fc e9 8a 3d
       0.004390732 -0.03470992 1.0135718e-06 0.0678291
000030 12 15 dc 3c ad 0c 2f 3c 02 be 6d 3c cf 01 22 3d
       0.026865516 0.0106841745 0.014510633 0.039552506
000040 ad 69 bc bb 88 65 85 bd c2 20 9e bb b5 35 88 3c
       -0.005749902 -0.06513506 -0.0048256824 0.016627172
000050 56 33 43 3d da 85 81 3d 99 14 43 bd fd fb 51 bc
       0.04765638 0.06324358 -0.047627065 -0.012816426
000060 2c d3 9c bc 3c 2b a7 bd 9d 67 82 3d 6e 4e 9f 3d
       -0.019143663 -0.08162543 0.06367419 0.07778631
000070 13 1c 67 ba b7 a7 01 3d 98 9c 1c 3d ea b7 72 3d
       -0.0008816134 0.031654086 0.038235277 0.059257425
000080 b0 3e 60 3d bc a4 e9 bc ff 4b 2f 3d db 9e 16 3d
       0.054747283 -0.028520934 0.042797085 0.03677259
000090 b6 2b 78 bd ff c7 3c bd af 63 45 bd e9 24 1d 3d
       -0.06058856 -0.04608917 -0.04819077 0.03836528
0000a0 78 56 bc 3c 70 a7 37 bd 5d 7b a8 3d cb b9 87 3d
       0.02299045 -0.044837415 0.08226655 0.06627234
0000b0 8a d1 f2 bc d7 b5 44 3d 26 04 a5 3d 9c 96 e1 3c
       -0.029640932 0.04802498 0.08057432 0.027537636
0000c0 eb 23 47 3d 6d 55 4f bd e2 1c 54 3d 29 23 57 bd
       0.04861824 -0.050618578 0.051785357 -0.052523766
0000d0 87 43 65 3d 25 f6 64 3d ae b6 e0 3c 48 f2 a0 3d
       0.055972602 0.055898804 0.027430858 0.078587115
0000e0 f6 83 f3 bc ce 12 9e 3d 80 1f 6a bc a1 72 ae bd
       -0.02972601 0.077184305 -0.014289737 -0.085179575
0000f0 df cf 90 bd 9b e1 a7 ba 07 a1 75 bc 89 d2 cd 3b
       -0.07070898 -0.0012808325 -0.014992005 0.0062812013

net.5.weight f4 [64]
000000 46 0c a2 3f be e3 68 3f ae 8a 97 3f 93 09 6b 3f
       1.2659996 0.90972507 1.1839197 0.91811484
000010 f1 77 68 3f 8b 6f 99 3f 7d 9d 6b 3f c3 8f 73 3f
       0.90808016 1.1987165 0.92037183 0.9514124
000020 04 76 98 3f 78 78 6a 3f c9 df 99 3f 4d 3c a3 3f
       1.1911016 0.9159007 1.2021419 1.2752777
000030 3f a4 ab 3f a9 3a 6c 3f d6 d2 72 3f f8 d2 68 3f
       1.3409499 0.9227701 0.9485296 0.9094691
000040 5a ee 70 3f 82 69 95 3f 7c 99 95 3f 4f db 93 3f
       0.94113696 1.1672823 1.1687465 1.1551303
000050 83 17 73 3f 59 6f 94 3f 9d 35 6d 3f 2e 94 6a 3f
       0.9495775 1.1596481 0.9265993 0.91632354
000060 04 6d 6b 3f d0 93 98 3f 68 69 a4 3f a0 05 6e 3f
       0.9196322 1.1920109 1.2844667 0.92977333
000070 e3 27 6e 3f b4 e9 98 3f 39 a0 96 3f fd d2 95 3f
       0.9302961 1.194632 1.1767646 1.1705014
000080 e4 45 70 3f 60 c6 6d 3f f8 b6 93 3f 05 8f 94 3f
       0.93856645 0.9288082 1.1540213 1.1606146
000090 24 bf 66 3f cb 17 71 3f 19 99 66 3f 50 8c 6a 3f
       0.9013541 0.9417693 0.9007736 0.9162035
0000a0 3c 93 97 3f 65 09 81 3f a6 26 9d 3f 7b 3f 97 3f
       1.1841807 1.0080992 1.227742 1.1816248
0000b0 96 1a 67 3f f9 7d 9a 3f 58 cb 98 3f 92 5c 6b 3f
       0.9027494 1.2069694 1.1937056 0.91938126
0000c0 f1 42 6d 3f f8 76 6a 3f e0 49 6c 3f 6f da 9b 3f
       0.9268027 0.9158778 0.92300224 1.2176036
0000d0 5d 43 97 3f 0b c9 9c 3f 2d b9 9d 3f e4 10 94 3f
       1.1817433 1.2248853 1.2322136 1.1567655
0000e0 c9 13 6e 3f 79 60 6c 3f 56 38 71 3f fe 07 6c 3f
       0.9299894 0.92334706 0.94226587 0.92199695
0000f0 6b 5d 6d 3f 7b 72 93 3f b4 67 a6 3f 83 d4 9a 3f
       0.9272067 1.1519312 1.3000398 1.2096103

net.5.bias f4 [64]
000000 9d b3 88 3e a1 cc 12 be c1 df 4b 3e 45 da 14 be
       0.26699534 -0.14335872 0.19909574 -0.14536388
000010 ad 7d 1a be 2d 17 52 3e ee 30 12 be ea 6b be bd
       -0.15087004 0.20516653 -0.14276478 -0.09297927
000020 ba 6f 63 3e e3 57 12 be 15 d8 68 3e 98 61 97 3e
       0.22210589 -0.14291339 0.22738679 0.29566646
000030 60 8d a6 3e 7a 83 22 be 56 dc 0f be 57 ee 0e be
       0.32529736 -0.15870467 -0.14048895 -0.13958107
000040 5c 69 dc bd 8f 1a 42 3e e5 3d 44 3e 9e fd 40 3e
       -0.10762283 0.18955444 0.19164236 0.18846747
000050 7d 47 93 bd 29 3f 3f 3e 81 32 ff bd 12 33 11 be
       -0.0719137 0.18676437 -0.12460805 -0.14179638
000060 05 3d 08 be 3c 9a 67 3e 05 51 8e 3e 17 8b 02 be
       -0.13304527 0.2261743 0.27796188 -0.12748371
000070 2e ce e9 bd 8e f9 53 3e ad 49 57 3e f9 8a 43 3e
       -0.11416279 0.20700666 0.21024199 0.19095983
000080 07 59 10 be b4 cd 15 be 24 f1 54 3e c8 0c 41 3e
       -0.14096461 -0.14629251 0.20795113 0.18852532
000090 c6 1b 11 be 3f 50 cd bd a7 9a 27 be 4e 05 17 be
       -0.14170751 -0.10025071 -0.16367589 -0.14748117
0000a0 d5 1c 4a 3e 99 ec ae bb 8c 74 54 3e b3 ef 56 3e
       0.19737561 -0.005338263 0.20747584 0.20989875
0000b0 f6 5e 22 be fc a3 57 3e fe 85 49 3e 38 26 fe bd
       -0.15856537 0.21058649 0.1968002 -0.124096334
0000c0 83 97 36 be cc 60 19 be 20 41 13 be a2 fe 7c 3e
       -0.17831235 -0.14978331 -0.14380312 0.2470651
0000d0 e6 8f 4a 3e 51 f1 7b 3e 80 5c 8a 3e f3 4b 4e 3e
       0.19781455 0.24603774 0.27023697 0.2014616
0000e0 ff c5 18 be e8 23 0e be a9 4d bd bd fc c1 23 be
       -0.1491928 -0.13880885 -0.09243328 -0.15991968
0000f0 a7 2d 06 be 17 1b 3b 3e d7 a9 8f 3e b6 20 6f 3e
       -0.13103352 0.18272053 0.28059265 0.23352322

net.5.running_mean f4 [64]
000000 6b 61 27 be c5 f7 f0 3c 3a eb 73 3d e0 9c 87 be
       -0.16345756 0.02941502 0.0595505 -0.26486874
000010 4a a0 fc bd 35 3c d7 bd 40 13 58 be 14 dc e9 bd
       -0.1233526 -0.105095305 -0.21101093 -0.1141893
000020 9e 7c e0 3d f8 78 19 be 9c 07 f9 3b 33 91 18 be
       0.10961269 -0.14987552 0.007599784 -0.14899139
000030 e5 cd 85 bc e1 5c 78 be 62 09 37 be 04 4c 44 3d
       -0.01633353 -0.2425418 -0.17874673 0.047924057
000040 34 ae e8 3b 20 43 8e bd 14 83 2f 3a 55 be 97 bd
       0.0071008448 -0.06946397 0.00066952524 -0.0740935
000050 f8 2d 2d 3d f6 0d 12 be 5c ec 22 be be ce 09 be
       0.042280167 -0.14263138 -0.15910476 -0.13457772
000060 b9 02 0f bc 75 cd 6c 3c f5 65 50 bd cf ce 1a be
       -0.0087286765 0.014453282 -0.050878484 -0.15117954
000070 8a dd 65 bd f0 99 59 bd ee 9f 3f 3c f0 77 33 3d
       -0.05611948 -0.053125322 0.011695845 0.043815553
000080 46 1f 34 be 9a 7e 5f be 2a c4 12 bd 10 14 83 bc
       -0.17590055 -0.21825638 -0.035831608 -0.016000777
000090 b6 5e 3e be 05 34 ad bd 0b 01 1e be 8e 64 b8 bd
       -0.18590817 -0.084571876 -0.15430085 -0.09003554
0000a0 d7 f1 3e bd 89 2c 38 bd 99 b3 8c bd 36 fe 4e bd
       -0.046617355 -0.044964347 -0.06870193 -0.050535403
0000b0 26 a4 c5 be 96 1f 57 bc 3a da 5c 3d 22 51 57 bd
       -0.38601798 -0.013130089 0.053919055 -0.05256761
0000c0 8d 72 6c be 10 69 18 be ca 28 0b be 18 e4 8b be
       -0.23090573 -0.14883828 -0.13589779 -0.2732246
0000d0 f0 05 82 3d 8e dc e9 3d a5 8b 40 3e e4 a7 4f bd
       0.06348789 0.114190206 0.1880327 -0.050697222
0000e0 c0 41 84 be 01 88 fd bd 2e fd 0a be dd a2 9e be
       -0.25831413 -0.12379456 -0.13573143 -0.3098363
0000f0 50 12 8d bd c3 01 10 be 7d 9f 88 be 6c 09 58 3c
       -0.068882585 -0.14063172 -0.2668418 0.01318584

net.5.running_var f4 [64]
000000 04 b8 67 3f d0 90 61 3f 54 c5 8a 3f eb c8 2e 3f
       0.9051516 0.8811159 1.084147 0.68275326
000010 51 d2 76 3f e7 d6 86 3f 1d 68 50 3f 32 f7 25 3f
       0.9641467 1.0534333 0.81408864 0.64830315
000020 20 5a 4c 3f 16 5f 1a 3f 70 f7 1b 3f a2 64 9b 3f
       0.7982502 0.6030134 0.60924435 1.2140086
000030 8c a9 92 3f 6c c0 5a 3f f0 0f 36 3f 79 38 6e 3f
       1.1457992 0.8544986 0.7111807 0.9305492
000040 39 1e 3f 3f 79 53 3f 3f 20 f2 43 3f b9 be 85 3f
       0.7465549 0.74736744 0.7654133 1.0448829
000050 00 c4 d6 3e 3c 40 7c 3f b6 8f 12 3f 81 3b 53 3f
       0.4194641 0.98535514 0.57250535 0.8251267
000060 b6 3a 3e 3f 90 b3 32 3f 6d d1 7b 3f 05 b8 30 3f
       0.74308336 0.6980524 0.98366433 0.6903079
000070 ec be 1f 3f 7e 30 73 3f 8b 08 42 3f 3b e7 68 3f
       0.624007 0.9499587 0.75794286 0.9097783
000080 dd 76 2d 3f e4 2c 2b 3f f4 6f 84 3f 62 4f 65 3f
       0.67759496 0.6686537 1.0346665 0.89574254
000090 7c 72 35 3f 4a 82 1d 3f be 3f 7f 3f cc 2e 47 3f
       0.70877814 0.6152693 0.9970664 0.7780578
0000a0 0c 03 85 3f 96 bb 67 3e 7b 12 41 3f 1e 24 7c 3f
       1.0391555 0.22630152 0.75418824 0.9849261
0000b0 98 dc 2e 3f 95 89 91 3f 32 30 5a 3f c4 26 2b 3f
       0.6830535 1.1370112 0.8522979 0.66856027
0000c0 e4 fa 7d 3f 7c 4a 37 3f 08 79 2e 3f 6f f6 72 3f
       0.99210954 0.7159803 0.6815343 0.9490728
0000d0 9c 69 92 3f 4c 67 26 3f 42 81 15 3f 2a 95 9e 3f
       1.143848 0.6500137 0.58400357 1.2389271
0000e0 dc 3b 29 3f 42 95 30 3f 84 80 32 3f 66 c7 56 3f
       0.66106963 0.6897775 0.6972735 0.8389801
0000f0 f4 28 39 3f 4f 5a 57 3f cb 5c 9c 3f 39 3d 89 3f
       0.72328115 0.84122175 1.2215818 1.0721809

net.8.weight f4 [1, 64]
000000 d6 36 35 be aa d2 83 3d fa fa 72 be 26 dc 9c 3d
       -0.176967 0.06436665 -0.23728552 0.076591775
000010 30 16 fd 3d bd cc 73 be aa 12 d6 3d 64 58 f8 3c
       0.123577476 -0.2380857 0.10452779 0.030315585
000020 38 71 4a be a8 1b b3 3d 57 e3 42 be 7a 84 1f be
       -0.19769752 0.087455094 -0.19032036 -0.1557788
000030 e1 49 41 be 8c bd 97 3d e0 04 10 3d ba 55 a9 3d
       -0.18875839 0.074092 0.0351609 0.08268304
000040 97 5b 11 3d df 49 6b be 57 5f 58 be 4a 16 63 be
       0.035487738 -0.22977398 -0.2113012 -0.22176471
000050 0d 58 e3 3b 8c 94 70 be 1a c8 90 3d 62 c1 b7 3d
       0.0069379867 -0.23494166 0.07069416 0.08972432
000060 a7 e9 6e 3d 2f 80 3b be ac 81 3b be 6c e6 53 3d
       0.058328297 -0.18310617 -0.18311185 0.05173342
000070 33 6c 7f 3d 23 f8 45 be c5 87 47 be 38 1a 57 be
       0.062359046 -0.19332938 -0.19485386 -0.21006095
000080 e2 0b 2f 3d 05 5b 09 3d 10 a8 26 be d9 0b 74 be
       0.04273594 0.03353407 -0.16275048 -0.23832645
000090 c3 f2 97 3d 83 45 6d 3c 7b d7 f8 3d c7 08 91 3d
       0.0741935 0.014481905 0.12150475 0.07081752
0000a0 dd 5e 6a be d2 c7 13 bd 2b 3c 04 be 01 f6 55 be
       -0.2288775 -0.036079235 -0.12913577 -0.20894624
0000b0 60 14 ca 3d 68 0f 6e be 62 59 5f be d6 5e 63 3d
       0.098671675 -0.23248065 -0.2181144 0.055510364
0000c0 fe db 4f 3d 23 54 c0 3d ec 08 17 3d 28 4f 3c be
       0.05074691 0.09391048 0.036873743 -0.1838957
0000d0 ac d7 84 be 24 33 1d be d9 8b 06 be ec 00 38 be
       -0.25945795 -0.1535154 -0.13139285 -0.17969102
0000e0 cb 70 82 3d 2b 9c a3 3d 72 f0 de 3c 60 cb 3a 3d
       0.0636917 0.07988771 0.027214263 0.04560411
0000f0 c9 21 6b 3d 12 05 68 be 86 f2 32 be ff 0d 42 be
       0.057405267 -0.22658184 -0.17475328 -0.18950652
