src/toxicity_detector/resources/toxicity-model.pt (torch, 197225 bytes, 5 tensors)

net.0.weight f4 [128, 313]
000000 09 24 9f 3d 6f 30 d8 bd 3d 03 5c bd 28 0f 81 3d
       0.07770545 -0.10556113 -0.053714026 0.06301719
000010 2a 04 64 3d d9 29 0b be 44 0c c3 3c 99 5a 8f bc
       0.055668034 -0.13590182 0.02380956 -0.017499255
000020 a3 5a e4 3d c0 bb 01 bd aa 87 c7 3c 7b a5 d9 bb
       0.111501 -0.031673193 0.024356682 -0.0066420413
000030 52 65 14 3c cb b5 e5 bb 85 b6 38 3c 48 55 8b ba
       0.00905736 -0.007010197 0.011273985 -0.0010630274
000040 87 76 ee bc d3 33 7c bd d4 d5 29 bd ae 38 c9 bc
       -0.029109253 -0.06157286 -0.041463688 -0.02456316
000050 92 58 b1 3d 0e db 32 bd 69 af 52 3d 6b aa ed 3d
       0.086594716 -0.043665938 0.051436815 0.1160477
000060 56 21 53 3c 69 1a 63 bd c2 59 7f 3d d9 45 8c 3d
       0.012886366 -0.05544511 0.06234146 0.0684926
000070 32 6e 14 bd b4 94 84 bd 17 80 62 3d ec 61 73 bd
       -0.036237903 -0.06473675 0.055297937 -0.059419557
000080 36 3b e2 bb a6 e2 42 3d 5e 16 aa bd 52 53 69 3c
       -0.006904031 0.04757943 -0.083050475 0.0142410565
000090 b6 e0 c4 bc bc 2d 9a 3d b6 46 a9 3d 7b dd da bc
       -0.024032932 0.075282544 0.0826544 -0.026716938
0000a0 12 fe c4 bc ba 52 9d bd 33 78 c1 3d f3 1e 2a 3c
       -0.024046931 -0.076817945 0.09446754 0.010383355
0000b0 23 52 a1 3d c6 1e e6 3c 5b 63 95 bb f3 96 89 bd
       0.078769945 0.028090846 -0.0045589632 -0.067182444
0000c0 44 ba 94 3d 90 c2 c0 3c a5 22 2f bd 2b 7f a1 3c
       0.0726209 0.023530275 -0.04275765 0.019713959
0000d0 b0 6b 89 3d 09 96 34 bc 28 e5 04 bd 19 a4 15 bd
       0.06709993 -0.011022099 -0.032445103 -0.03653345
0000e0 32 6d 57 bc 36 58 d2 bb 56 d2 3c bc 1c 0b 13 3d
       -0.013148593 -0.006419207 -0.011524757 0.035899267
0000f0 af d1 7f bd 4d a1 17 bd 4f 10 07 bb 10 71 45 bd
       -0.06245583 -0.037019063 -0.0020609086 -0.048203528
000100 96 82 0d bb 9d 9c 95 bc 14 52 a8 3c 21 9c 05 bd
       -0.0021592728 -0.018263156 0.02054695 -0.0326196
000110 e9 fc 59 3d b6 4e b9 3d e4 b0 88 bc eb 41 d6 3d
       0.05321971 0.09048216 -0.01668591 0.104617916
000120 7e a5 93 3d ca 93 4a bc 8d 98 e0 3d 39 32 76 bd
       0.072092995 -0.012364337 0.10966597 -0.06010649
000130 95 05 33 bd 6a 79 7d bd 94 73 f5 39 1a 8f b0 3d
       -0.043706495 -0.061883368 0.00046816154 0.086210445
000140 b7 83 c5 3c aa 43 9b 3c cd 86 9d bd 4c cf a6 bc
       0.024110658 0.018953163 -0.07691727 -0.020362519
000150 88 1c 65 3c aa 1a 07 bd 31 22 7d bd e2 78 0d 3e
       0.013983853 -0.032984413 -0.061800186 0.13815644
000160 37 92 06 bc 35 f7 ea bd a9 95 a1 3d 21 66 66 bd
       -0.008213571 -0.11472932 0.078898735 -0.05624974
000170 a9 03 2e 3c 66 29 91 bd 77 24 12 bd e9 9e cc bb
       0.01062099 -0.07087974 -0.035679307 -0.0062445295
000180 83 ce c4 bb fa 05 05 3c 38 3d e1 bc 8c d5 b7 3c
       -0.0060060634 0.008119101 -0.027495012 0.022440694
000190 b9 44 84 bd 16 69 96 bc ef b3 14 bd 32 23 55 3d
       -0.0645842 -0.018360656 -0.03630441 0.052035518
0001a0 c6 11 b1 bc 6a 4c 47 3d f2 83 19 3d 59 ce 08 be
       -0.02161492 0.04865686 0.03747935 -0.13359965
0001b0 73 06 37 3c 13 3c 73 3d 17 3f 4e bc d1 73 c4 bb
       0.011170971 0.059383463 -0.012588284 -0.0059952517
0001c0 e8 b8 89 3d 53 28 fb 3b 86 8f 12 3d 33 14 ab 3c
       0.06724721 0.007664719 0.035781406 0.020883655
0001d0 1d 1a 63 3c 2d 74 37 bd 78 56 37 bd 56 91 9c 3c
       0.013861206 -0.04478853 -0.044760197 0.01911227
0001e0 3a b3 48 ba b4 2d a7 3c cd 92 24 bd 62 19 39 bd
       -0.00076561014 0.020407535 -0.040179063 -0.045190223
0001f0 fb d1 80 bd b3 37 29 3b a4 e5 29 bd ad f4 35 bc
       -0.062900506 0.0025820553 -0.041478768 -0.0111056985
000200 0e 61 f4 3c b9 e3 8d 3d 15 d6 58 3d b8 d2 6c bd
       0.029831436 0.069282 0.05293854 -0.057818145
000210 b2 c6 08 3d b2 cc 18 3e 03 a6 72 bd 48 89 37 3d
       0.033392616 0.14921835 -0.059240352 0.044808656
000220 71 ff 41 bd 4e c3 d4 3c c3 b7 fb bc ca 03 5f bc
       -0.04736275 0.025972035 -0.030727273 -0.013611743
000230 98 5f 07 3d 43 37 c6 ba 40 41 99 bd c9 04 a8 bd
       0.03305015 -0.001512267 -0.074831486 -0.08204038
000240 a8 54 26 3b d9 71 7e 3d 13 6b 1d 3d 3c 88 05 3c
       0.002538005 0.062120292 0.038432192 0.008150157
000250 e5 cc 67 bd a2 82 47 bc 3d b3 07 3e bf d9 80 bc
       -0.056591887 -0.012177141 0.13251968 -0.01572883
000260 db 5a 13 3d 13 65 4c bd 9a cb 46 bd b6 43 f0 3c
       0.03597532 -0.04990108 -0.048534013 0.029329162
000270 c0 f8 0e 3c 31 28 b1 bd e4 e6 49 3c 2f 81 2f 3d
       0.008726299 -0.08650244 0.012323115 0.04284781
000280 78 30 02 bd 4f 03 52 bc 77 30 18 bd 1c 72 8b bd
       -0.031784505 -0.012818172 -0.037155595 -0.06808874
000290 21 78 16 3d a3 04 43 3d 5f bf 69 bd 3c f7 f9 bc
       0.036735658 0.047611844 -0.05706727 -0.030513398
0002a0 f8 29 8d bc 9e ef e9 3c 11 3e 0f 3d 49 42 d0 bc
       -0.017231926 0.028556641 0.0349713 -0.025422232
0002b0 3d fd 54 3d ca 3c e1 3c 16 95 5a 3d 92 15 51 bd
       0.05199932 0.027494807 0.053364836 -0.05104596
0002c0 f2 7d f7 3b 48 a5 c2 bc 28 49 e1 3c 4f 2a 68 3d
       0.0075528556 -0.023760453 0.027500704 0.056680974
0002d0 64 24 94 bd 95 93 cc bc 62 99 35 bd b8 74 2d bd
       -0.072335035 -0.024972716 -0.04433573 -0.04234764
0002e0 29 7d 85 bb ec 66 12 3c e1 c4 94 3d a8 8b 20 3d
       -0.004073758 0.008935671 0.07264114 0.039195687
0002f0 8d f3 4b bc 64 74 3a bc ff b3 9c 3d b3 40 18 bc
       -0.012448204 -0.011380289 0.07651519 -0.009292769
000300 33 7d 3d 3d d7 2a c4 bc fd b0 a3 3d f9 72 cd bc
       0.046261977 -0.023946209 0.07992742 -0.025079237
000310 fe e5 c4 bc f1 c7 c7 bc a2 ce 60 bd d8 90 81 3d
       -0.02403545 -0.024387332 -0.05488456 0.06326455
000320 78 38 96 bc 99 95 53 bd a7 2e a2 3d 02 53 65 bc
       -0.018337473 -0.05165634 0.079190545 -0.013996841
000330 1c 8a 62 bd a3 1d 06 be 9c bf 04 bd 9f 86 72 3d
       -0.055307493 -0.13097243 -0.032409295 0.059210416
000340 ee 6a ac bc 57 fc a4 bc 70 e4 db 3c 29 a1 8b bd
       -0.021047082 -0.020139856 0.026842326 -0.06817848
000350 16 9c 7b 3d 30 0e 63 3d c3 b5 74 bd da 8f 63 bd
       0.061428152 0.055433452 -0.059743654 -0.05555711
000360 d3 c0 c3 3d 94 d8 bf bd 64 1e 05 3b b6 2f a0 3b
       0.09558263 -0.09367481 0.0020312304 0.0048885
000370 cf 34 81 3c 0c ff 06 3c 6c 6f 81 bd a1 33 1c 3c
       0.015772251 0.008239519 -0.0632008 0.009533794
000380 bb 03 73 3d 03 9b d7 bc 61 51 78 bc 61 ff c8 bd
       0.05932973 -0.026319033 -0.015156121 -0.09814335
000390 53 4d 15 bc d4 fa 28 3d 5d eb 83 bd ca 02 2e 3a
       -0.009112674 0.041254833 -0.06441376 0.0006637989
0003a0 26 3b 9f 3b f3 f6 57 bd 1c bf e2 bc 6c 73 25 3d
       0.004859346 -0.052725744 -0.027679019 0.040393278
0003b0 22 5e 42 bd 1b da 15 bd 6a 83 05 3b 15 ff 2a bd
       -0.047453053 -0.036584955 0.0020372518 -0.04174717
0003c0 41 b1 28 3d e8 e7 64 3d 17 31 15 bc 82 ef 99 bc
       0.041184667 0.055885226 -0.009105942 -0.018790964
0003d0 f5 ce 24 3b df 47 30 bd 2a 55 7c bd e8 82 04 be
       0.002514777 -0.04303729 -0.061604656 -0.12940562
0003e0 77 43 bd b9 d6 f6 a7 bc 5c 29 72 3c 46 66 28 3d
       -0.00036099154 -0.020503443 0.014780369 0.04111316
0003f0 18 d4 e7 bc 27 6e 3f bc 79 1a db bc 4c 50 0d bd
       -0.028299376 -0.011683977 -0.026746022 -0.034500405

net.0.bias f4 [128]
000000 2c 2e 18 3d 45 fc 03 3c a0 fd e9 bc 51 14 58 3d
       0.037153408 0.008055751 -0.02856332 0.05275375
000010 f3 bd 9a 3b 3a 74 da 3b 37 45 1d bd d4 0f 59 bd
       0.0047223507 0.0066666873 -0.038396087 -0.05299361
000020 5c cc 14 3d 16 ee 3f 3d cc ae 04 bd 3f 42 53 3c
       0.036327705 0.046857916 -0.03239326 0.012894212
000030 32 06 7d bd 20 9b 84 3b f5 b6 11 3d dd 40 c6 3c
       -0.061773486 0.0040468127 0.035574872 0.024200851
000040 3e 9d ee bc ec 04 6f 3c dd c8 f8 bc 7a d3 09 3d
       -0.029127713 0.014588576 -0.030369217 0.033648945
000050 b6 c6 da 3b bb 0c 8f 3c d9 36 71 3c a1 e3 59 3c
       0.00667652 0.017462125 0.014722549 0.0132989
000060 8d c4 86 bd 78 3a 9b 3c 0e 15 3e 3c c9 fd 80 bc
       -0.06580458 0.018948779 0.0116016995 -0.015746014
000070 80 55 ae bb f8 7d e6 bc de 1d 9a 3c 8c d5 02 3d
       -0.005320251 -0.028136238 0.01881307 0.031941935
000080 9b 05 6e bd 55 5c e0 bc d3 b7 c8 bc eb b3 21 bc
       -0.058110815 -0.027387777 -0.024501717 -0.009869556
000090 23 0e 00 3d fa f6 91 bc fc d3 ff bc d1 9a e6 3a
       0.03126348 -0.017817963 -0.031229012 0.0017593746
0000a0 ad 93 8d bc 6a 9b fd 3b ab ee 69 3c 61 43 5a bd
       -0.017282331 0.007739474 0.014278094 -0.053286914
0000b0 91 9e 01 3d 4e a6 86 3c e3 7f 5a 3d 04 e2 90 3c
       0.03164536 0.016436722 0.05334462 0.017685898
0000c0 53 56 0b bd 9d 93 34 bd ed a5 c4 3c 64 50 12 bd
       -0.034017872 -0.044086087 0.0240049 -0.035721198
0000d0 0a 39 5a bd 1a 7b 8b 3c 33 b7 09 bd 61 81 12 bd
       -0.053277053 0.017026473 -0.033621978 -0.035767917
0000e0 67 51 03 bc a6 ca 52 bd 56 42 0d 3a ec 5c 73 3d
       -0.008015013 -0.05146279 0.0005388608 0.05941479
0000f0 87 91 80 3a 0d 1a 0d bd 11 ea bd bc 99 f1 36 3d
       0.0009808996 -0.034448672 -0.0231829 0.044664
000100 50 5a b8 3a 29 3d 4c bd 58 5a 3a 3d 1b 46 38 3d
       0.0014065001 -0.049863014 0.045496315 0.044988733
000110 2e 83 22 bd cf d0 d8 3c f5 1c 8a bc 7d 11 13 bc
       -0.039675884 0.026466755 -0.01685951 -0.0089763375
000120 24 95 f4 bc 3e 7f d4 3c 83 a8 6a 3d d5 9e 02 3d
       -0.029856272 0.02593958 0.05728961 0.031889755
000130 4d 2e 81 bb 44 ff 3b 3b 16 30 2e 3d d0 86 af bc
       -0.003942287 0.0028686086 0.042526327 -0.021426588
000140 97 48 fa bb 8d dd 33 bc 1f 59 68 ba ae 0c 80 bd
       -0.007638048 -0.010978115 -0.0008863378 -0.062524185
000150 5d d3 7a bb ef 52 2a bd 06 14 5e 3d 8f de 9d bc
       -0.0038272955 -0.041582998 0.054218315 -0.019271163
000160 33 21 28 3d f0 c5 90 bd 32 f4 0e bd 40 5d a1 3c
       0.041047286 -0.070690036 -0.03490085 0.019697785
000170 cd ac 7a bd 72 a7 b8 bc 0b 9f 86 bc 0a f5 40 bd
       -0.061199952 -0.022540782 -0.01643326 -0.047108687
000180 81 ad 0a bd 4d e9 e6 bc 16 01 ef bc d3 4f ec bc
       -0.033856872 -0.028187418 -0.029175323 -0.028846657
000190 a7 dd 22 bd 0c 22 b2 ba c5 4c 81 bb 7a e5 f2 3c
       -0.039762165 -0.0013590469 -0.003945919 0.029650439
0001a0 95 95 23 3d 62 08 b6 3c 67 88 8a 3c 39 c1 50 3d
       0.039937574 0.022220794 0.016910745 0.05096552
0001b0 8e 37 5d 3d 1b 85 3f 3d a1 1b 64 bc 77 f0 91 bc
       0.05400806 0.0467578 -0.013922603 -0.017814858
0001c0 a4 25 df bc 80 af 8a bc c8 a8 3c bd c1 99 83 bd
       -0.027239628 -0.016929388 -0.0460594 -0.064258106
0001d0 ab 09 ef 3b df cf 8c 3d c9 df d5 3b 95 2c 6b bc
       0.0072948537 0.06875586 0.0065269214 -0.014353891
0001e0 62 b9 81 bc 9c d2 aa 3b 18 14 82 3d 98 9a ad 3c
       -0.015835468 0.005213095 0.06351489 0.02119188
0001f0 38 bf 71 3d 55 ae 19 bd 88 c2 13 3d e7 7a e6 ba
       0.05902025 -0.03751977 0.03607419 -0.0017584235

net.3.weight f4 [64, 128]
000000 53 43 88 3d c9 e7 17 3e 9d 14 3a bb 7b 69 13 3e
       0.06653466 0.14834513 -0.0028393634 0.14395706
000010 cd e8 d9 3d 20 00 06 bc a6 48 ca bd 91 4c 5c bd
       0.10640106 -0.008178741 -0.09877138 -0.053783957
000020 b7 76 9d bd a9 9b 03 3e fa 3a fc 3d 0b 73 5d bc
       -0.07688659 0.12852348 0.123159364 -0.013516198
000030 3c 5c af 3d 3a 8a 39 3e 15 a0 5f bb 79 e9 28 bd
       0.08562514 0.18119135 -0.0034122516 -0.041238282
000040 ab b9 05 3e 55 a6 a0 3c bc 02 79 3c 05 6f ad 3d
       0.13059108 0.019610563 0.015198406 0.08468441
000050 77 b7 f2 3d 41 d0 fd 3c 2c 58 5e bd 59 e5 44 bd
       0.118513994 0.030983092 -0.054283306 -0.048070285
000060 55 fc 3f bd 04 50 0d 3e f4 ec 2f 3e a4 f8 72 3c
       -0.046871502 0.13800055 0.17180234 0.014829788
000070 2b 8d 7d 3d 05 1b 80 3c e5 ae 7d 3c 05 40 03 3e
       0.061902206 0.015637884 0.015483593 0.1281739
000080 d0 49 a5 3c d4 62 be 3d a9 35 f0 3d 4b e7 5a 3d
       0.020176798 0.09296194 0.11728985 0.053443234
000090 67 00 65 bc 50 f0 9d 3d 35 4f 96 3c 86 91 1b bd
       -0.013977147 0.077118516 0.018348316 -0.03798058
0000a0 cd 19 39 3d be 7f e1 bc ed 25 2c 3d ff 47 ae bd
       0.04519062 -0.027526733 0.042028356 -0.08509826
0000b0 f6 6f b2 3d 8f b5 1a bd b5 0b 47 bc d8 dc e6 3c
       0.08712761 -0.037770804 -0.012148787 0.028181478
0000c0 bd 37 60 3d ec f3 e0 3d 6c 98 45 3d f4 75 e8 3c
       0.054740656 0.109840244 0.048241064 0.028376557
0000d0 a3 1c 22 3c 68 b7 00 3e 01 4f 46 3c 97 b3 81 3d
       0.009894523 0.12569964 0.012103797 0.06333082
0000e0 e4 2a a0 bd f6 c4 00 bb 6a 79 09 bd 17 53 87 bb
       -0.07820681 -0.0019648648 -0.033563055 -0.004129778
0000f0 b4 2f a2 3d a3 81 02 3e 33 58 0b 3e bf 0c 8e bd
       0.07919255 0.12744765 0.13607864 -0.06936025
000100 6f 3a 69 3d 9e 45 a6 bd 67 fa e8 3d 70 9e c0 3d
       0.056940492 -0.08118747 0.113758855 0.094052196
000110 1f eb 79 3d e3 20 75 3c 98 5c 00 bd 01 06 35 3e
       0.061015245 0.014961454 -0.031338304 0.17678072
000120 8a e6 f1 3d 6d 72 22 3b df 69 dd 3d 55 27 9d 3c
       0.1181155 0.0024787441 0.10811209 0.019183794
000130 c4 7d a5 3d 66 29 4c 3d ba 54 2e 3c 08 3f b4 3d
       0.080806285 0.049844168 0.010640318 0.08801085
000140 bf b1 ba bd ad 9c 96 bd 77 cc e5 3d a1 4e 08 3d
       -0.091159336 -0.07354102 0.11220639 0.03327811
000150 f3 93 8b 3b e6 d4 4c 3c a4 52 69 3c 8c a2 ed bc
       0.0042595803 0.012501931 0.0142408945 -0.029008172
000160 3d eb 1b 3e 76 b5 af b9 11 2c c6 bc d6 7e 3b bd
       0.15226455 -0.000335138 -0.024190934 -0.045775257
000170 bd 30 64 bc 87 f5 23 bd 0f 35 d6 3d 75 d2 32 bd
       -0.013927636 -0.040029075 0.10459339 -0.04365774
000180 87 ac 99 3d 94 c9 05 3d 4b c5 b7 bb 31 7e 11 bd
       0.0750361 0.032662943 -0.005608236 -0.035520736
000190 af ab 11 be fb 49 42 bd 49 b6 b7 3d 4b 35 82 3c
       -0.14225648 -0.047433835 0.08970315 0.015894553
0001a0 69 28 16 3e f5 ac b6 bd fc 15 bc 3d 6b c7 cc 3c
       0.14663853 -0.08919708 0.09183881 0.024997434
0001b0 ad 58 bd 3d 71 0f 18 3e 2a 2d fa 3d 92 da aa 3d
       0.09245429 0.1484964 0.122156456 0.0834247
0001c0 21 3f 04 3e 15 5d 20 3e d5 0c 43 3d fe 2e 6e bb
       0.12914707 0.15660508 0.04761966 -0.0036343927
0001d0 63 6a 9e bd a5 69 08 3d be 72 6f 3d da e9 24 3d
       -0.077351354 0.033303875 0.058459036 0.04026208
0001e0 60 89 2b 3e 4c f0 34 3d 91 74 b2 3d f6 c7 f1 3d
       0.16751623 0.044174477 0.087136395 0.11805718
0001f0 b9 bc 12 3e 34 96 0c 3e c1 bb 23 3e 7b 23 80 bd
       0.14329804 0.13729173 0.15989591 -0.06256767
000200 ed 44 ac bb 82 67 04 3e a0 47 0b 3e ec 34 2e 3e
       -0.00525724 0.1293011 0.13601542 0.17012376
000210 f7 36 50 3d bf 2a 56 3d 17 2a 62 bd 0e 19 1b bb
       0.05083367 0.05228686 -0.05521592 -0.0023666057
000220 99 1d 15 bd e0 81 84 37 09 c2 5a 3c ca 1b 08 3e
       -0.03640518 1.5796104e-05 0.013351926 0.1329185
000230 fe b3 df bc dc 26 e9 3c ad 43 b2 3d 8f c2 c7 bc
       -0.027307507 0.028460912 0.087043144 -0.024384765
000240 fa 8a 0a 3d ca 34 e8 ba 09 96 77 3d 1b cb 30 3d
       0.033823945 -0.0017715928 0.06044582 0.043162446
000250 01 82 4b 3c 8f 84 8b 3d df 7f 1a bc a2 57 01 3d
       0.012421132 0.06812393 -0.009429901 0.031577714
000260 fa c9 9a bd 5d 99 18 3e 1a 19 3e 3e 08 fa 88 bd
       -0.07558055 0.14902253 0.18564263 -0.06688315
000270 31 ea c8 bc 0f 69 fe bb 2c 4d 90 bc f5 12 0b 3e
       -0.024525734 -0.007763989 -0.017614923 0.1358145
000280 df 05 7b 3b bc c7 97 bd c9 9e 09 3e 6e cc 17 3e
       0.003830306 -0.07411143 0.13439478 0.14824077
000290 8c c5 3a 3d 89 c0 98 3d 25 31 02 3e 47 96 34 3d
       0.04559855 0.07458598 0.1271406 0.04408863
0002a0 01 ab bb bd 7e 08 21 3d a1 c0 15 3d 79 c4 63 bd
       -0.09163476 0.03931474 0.03656066 -0.055607293
0002b0 28 7e a1 bd 69 ba a2 bc 66 8f 2e 3e e8 73 2f 3c
       -0.078853905 -0.019864278 0.1704689 0.010708787
0002c0 3c 88 07 3e 28 49 95 3d cd db 6d 3d b7 af f8 3d
       0.13235563 0.07289344 0.058070946 0.1214289
0002d0 0e 79 a7 b9 2c b4 c7 bb 8f 67 9a bd 4d c0 c0 3d
       -0.00031942915 -0.006094476 -0.075392835 0.094116785
0002e0 c2 cc bc 3c 1a c0 02 be c9 66 bb 3b c9 04 b8 3c
       0.023046855 -0.12768593 0.00571904 0.02246322
0002f0 22 ff 14 3d fc cc c0 3d ec ef e7 3d 4e d3 12 bc
       0.036376126 0.09414098 0.11325058 -0.008961512
000300 de 4d 95 bd 89 5e df 3c f7 14 1b 3d 92 bc ce 3d
       -0.072902426 0.027266758 0.03786179 0.10094561
000310 fa bb e5 3c 77 fc 20 3c a6 3c ef bc 95 1a 0e 3d
       0.028043736 0.009825817 -0.029203724 0.03469332
000320 36 69 2b 3e 8f d0 07 3d 8b 7c 30 3e 11 7f c4 bd
       0.16739354 0.03315788 0.1723501 -0.095945485
000330 2d 62 bc 3b e1 dd b6 3d 70 90 8b 3d 40 d7 9c 3d
       0.005749008 0.08929039 0.06814659 0.07658243
000340 c1 43 47 bd f7 ad 54 bd 71 73 58 3d 42 6a cf bb
       -0.0486486 -0.05192372 0.05284447 -0.0063298056
000350 5f 2d ab 3c fe 36 a6 3d 1c 2d 96 3d 53 44 bf 3c
       0.020895658 0.08115958 0.07332823 0.02334801
000360 a5 04 85 3d 8e 49 e6 bd 27 d2 13 bc c8 ba 16 bd
       0.064950265 -0.11244498 -0.009022272 -0.036799222
000370 52 96 3c bd 7e eb b3 bd a2 87 95 3d 9e 57 7c bd
       -0.046041794 -0.08785151 0.073012605 -0.061606996
000380 cb 91 b9 bb f1 f5 8a bd d1 bd 1f bc cc 85 8b 3d
       -0.005663132 -0.06785191 -0.009749846 0.06812629
000390 7b 5a f6 bc 7e ad cf bd ad 9f b1 3d 7c 79 75 bc
       -0.030072441 -0.10140513 0.08673034 -0.014982577
0003a0 7e 2f 15 3e 48 eb e9 3c 63 c7 75 3d 65 c6 09 3e
       0.14568898 0.028554574 0.060004603 0.13454588
0003b0 91 b1 dc 3d ab ba 22 3e d3 48 19 3e 49 32 0a 3e
       0.107760556 0.1589152 0.14969186 0.13495745
0003c0 6f eb f7 3d 08 ca 41 3e f4 21 31 3d 59 f9 47 bd
       0.12105452 0.18924725 0.04324527 -0.04882178
0003d0 fa 09 2d 3b 8e de b6 3b b0 67 32 3d 5d 6c 22 bd
       0.0026403652 0.00558073 0.043555915 -0.039654125
0003e0 b5 d2 f3 3d 83 1e 31 3d 27 2a 5f 3d 12 72 07 bc
       0.119054236 0.04324199 0.05448356 -0.008266943
0003f0 0f 44 b6 3d 07 fd d9 3d b0 fb 63 bb a1 56 68 bd
       0.088997 0.10643964 -0.0034787469 -0.05672324

net.3.bias f4 [64]
000000 29 43 b4 bd 63 39 ac bd e8 79 b8 3d 38 c2 06 3d
       -0.08801872 -0.08409383 0.09007627 0.032900065
000010 06 e2 2c 3e 49 51 e7 3b 65 53 2b bc d7 0d d8 bc
       0.16883096 0.0070592505 -0.0104568945 -0.026373787
000020 76 17 d4 3d 9e 8a 9a bd ea 25 2b bc 1f 24 c5 bd
       0.10356037 -0.075459704 -0.010446051 -0.0962603
000030 e1 78 75 bc 91 53 ed bc 63 47 9f bd c1 c0 83 3d
       -0.014982433 -0.028970512 -0.07777288 0.06433249
000040 cd 19 07 3d 99 bb 10 3d e2 7a 68 3c f5 c2 92 bc
       0.03298359 0.035335157 0.014189454 -0.017915228
000050 c1 73 2c bb c3 1d ac bc fa 60 73 3d cc 71 7f 3d
       -0.0026314112 -0.021010285 0.059418656 0.062364385
000060 c3 53 a0 ba 41 29 0c 3c f4 76 d4 3d 04 75 8a bd
       -0.0012231994 0.008554758 0.10374251 -0.067606
000070 fe 1e 91 3d 95 93 e4 3d 33 3b 72 3d 6d 3e c9 bd
       0.070859894 0.111609615 0.059138488 -0.0982636
000080 97 bb 1c 3e 0a d5 f3 3c e2 65 74 3d b9 e8 c4 bd
       0.15305935 0.02976467 0.059667476 -0.09614701
000090 25 63 c2 bb d9 82 03 3e a1 14 2e 3c 91 51 b3 bd
       -0.005932229 0.12842883 0.0106250355 -0.08755792
0000a0 00 1f f2 3d ce 09 2c 3e 22 11 51 bd 91 ca 50 3e
       0.11822319 0.16800615 -0.05104173 0.20389773
0000b0 ce 02 2d 3e 6a 8c 27 3d 1e 7b 11 3d 6a 2a 01 3c
       0.16895601 0.040905394 0.035517804 0.007883647
0000c0 ae 9f c6 3d fb 25 06 3e 71 f6 1c 3e 86 6d 21 3e
       0.09698425 0.13100426 0.15328385 0.15764436
0000d0 9a 38 61 3d 59 51 19 3d a5 3c 24 bd a3 ad 99 3d
       0.05498562 0.037431095 -0.040096898 0.07503822
0000e0 06 4c 92 bb ab 7e 2b 3e 16 2e 64 3c 2c 20 10 3e
       -0.004464629 0.16747539 0.013927003 0.14074773
0000f0 43 d9 80 3d 4f 79 47 bd 4d ca 94 3d 74 03 3f 3e
       0.062914394 -0.048699673 0.07265148 0.18653661

net.5.weight f4 [1, 64]
000000 ef 97 57 be 25 b2 20 be 5e 5f 67 3e 95 2e 52 be
       -0.21054052 -0.15692957 0.22594973 -0.20525582
000010 5b 5b 6a 3e 4a d9 18 be a8 ca 34 3c d0 0a 5e be
       0.22886412 -0.14926639 0.011034645 -0.21683812
000020 fb 9e 20 3e 59 b4 d5 bd 62 ed 53 be ce 50 2d bd
       0.15685646 -0.10434789 -0.20696023 -0.04231339
000030 98 d3 e1 bd d6 52 1f be ef ab f2 bd 58 c4 f4 bd
       -0.110266864 -0.15558943 -0.118492 -0.11951512
000040 8a 09 80 3d 36 9b 50 be 1c 6a dd bd 3d 02 19 be
       0.062518194 -0.20371708 -0.108112544 -0.1494226
000050 7e 22 09 be 47 80 01 be f4 60 2e be 0e db 84 3e
       -0.13392064 -0.1264659 -0.17029172 0.25948375
000060 72 a3 44 be 40 1a 5b be 24 a3 17 3e 85 af 2c be
       -0.19202974 -0.21396732 0.14808327 -0.1686383
000070 43 ca 22 3e 1b 57 f5 3d 64 ca 42 be e5 e4 10 be
       0.15897469 0.11979505 -0.19022518 -0.14149816
000080 46 69 50 3e 5e b1 d8 bd 65 3b b7 3d b2 e9 3f bc
       0.20352659 -0.10580705 0.089468755 -0.011713432
000090 52 2b 31 be 89 3c 17 3e 08 3b 60 be fe 1b 1b be
       -0.17301682 0.14769186 -0.21897519 -0.15147397
0000a0 5b cf 6d 3e 94 76 0b 3e 29 dc 1a be e7 a7 03 3e
       0.23223631 0.13619453 -0.15123047 0.12857018
0000b0 30 f0 4d 3e 5e 45 3a bd e7 6b 40 3e a2 54 cc bd
       0.20111156 -0.04547631 0.18791161 -0.0997708
0000c0 b4 9d 33 3e 09 72 41 3e 20 a7 87 3e c4 61 05 3e
       0.17540628 0.18891157 0.26494694 0.13025576
0000d0 b3 01 21 be 92 b1 68 3e b4 5b 95 bd 55 7e 08 3e
       -0.15723304 0.22723988 -0.072928816 0.13329442
0000e0 20 a9 37 be c2 ab 6d 3e ea 93 64 be 70 a2 08 3e
       -0.1793561 0.23210052 -0.2232205 0.13343215
0000f0 1b 29 1b be 00 8a 5a be bc ba 51 be d7 e8 68 3e
       -0.15152399 -0.21341705 -0.2048139 0.22745071
